checkpoint.pt (torch_old, 208260 bytes, 12 tensors)

module_list.0.weight f4 [64, 24]
-0.0016821674 -0.0007425123 0.0028710468 -0.0010634755 1.1741649e-06 -0.00024737092 -0.002827295 0.002428473
-0.0007584053 -0.0015440694 0.0020917864 0.0020331875 0.00091598975 0.0010350407 -0.0028747849 0.0013449001
-0.0017190013 -0.0010450999 -0.0004103994 -0.00010895915 -0.0014957611 -0.0016120248 -0.0011625874 -0.0016484729
0.74235797 0.8474403 -0.37303624 0.05688433 0.26173025 -0.2545761 -0.37212506 0.056845408
1.0339084 0.9691763 0.14299256 -0.12316451 0.20657344 -0.5885344 0.14116803 -0.12343853
1.1250731 0.8850871 -0.116666585 -0.2458516 0.105969936 -0.70589674 -0.11357415 -0.2500451
0.84673256 -0.29361734 -0.081085205 -0.015151403 0.07483729 -0.6828902 -0.08302954 -0.015813196
0.66996115 -0.19983384 -0.18992063 0.12299882 0.114835374 -0.45485494 -0.18710563 0.12012426
0.6461965 -0.22787403 0.0508581 -0.038247988 0.10361864 -0.26124132 0.04814435 -0.037691254
-0.13272555 -0.6671504 -0.040026948 0.17972426 0.48102617 -0.5290702 -0.04244987 0.18136828
0.04008133 -0.5105879 -0.11575281 0.03400027 -0.3981826 -0.3235266 -0.12134165 0.035030954
0.27060384 -0.40839192 -0.07319274 -0.07975198 -1.1987084 -0.25253296 -0.07197495 -0.08031325
-0.071859606 0.005161409 -0.013514783 -0.098663785 0.3641587 -0.33511055 -0.008518644 -0.103840254
-0.26708388 -0.10305108 -0.0031693827 -0.19280483 0.67200196 -1.0734829 -0.003288965 -0.19117968
-0.3044845 -0.087446444 0.06832973 0.15768093 0.75902027 -1.8051175 0.06708166 0.15603653
0.23146586 0.55298674 -0.084020145 -0.85851985 0.2194197 -0.43947566 -0.08420669 -0.85766345
0.26066634 0.41527474 -0.10508264 -0.06915573 0.41131064 0.25205508 -0.10598891 -0.07007211
0.27294162 0.49824807 -0.08709723 0.31413236 0.66262937 0.73853934 -0.08957726 0.31424788
0.3414207 0.802322 0.011947786 0.24306998 -0.10623519 0.026526438 0.011078456 0.24644753
0.0026837557 0.47337878 0.16600925 -0.014501675 -0.026357867 0.694739 0.16786754 -0.0115582915
-0.03232757 0.319394 0.07761806 0.15164097 -0.19749787 1.2101059 0.079727754 0.15215804
-0.4367504 0.21779878 -0.01946747 0.14785229 -0.65854335 -1.0153937 -0.021680735 0.14570306
-0.22435921 0.36187908 -0.036199573 0.10549063 -0.26883987 -1.322818 -0.03301089 0.10613216
-0.25066805 0.29142806 -0.040257722 0.11130735 0.29618642 -0.5223824 -0.038720608 0.11023012
0.16804835 -0.17990512 0.14641474 -0.7407048 -0.42114136 -0.7383676 0.1509987 -0.73672664
0.50604427 0.106809065 0.01205348 -0.212086 0.043178532 -0.9901166 0.012374798 -0.21152534
0.5310872 0.22714007 0.18283406 0.24614489 0.09667491 -0.52585584 0.18390116 0.24704424
0.3493834 -0.025407387 0.05839997 0.2278025 -0.4694651 -1.7839055 0.058985952 0.22573479
0.41688532 0.11118018 0.14225733 0.3077733 -0.34621543 -0.8871647 0.14107463 0.3050561
0.42494255 0.13327438 0.079058476 0.1456386 -0.36247173 -0.5062853 0.080420054 0.14356728
-0.20632961 0.64259523 0.049006388 -0.08743745 -0.06535565 -0.5143204 0.046782225 -0.08780046
-0.17571375 0.5650325 0.07756678 0.15352957 0.21419151 -1.0773697 0.08053423 0.14979757
00000000: 2c7c dcba 28a5 42ba 2c28 3c3b 5164 8bba
00000010: 0098 9d35 90b1 81b9 244a 39bb 0427 1f3b
00000020: b8cf 46ba 5f62 caba 5a16 093b 3a3f 053b
00000030: 081f 703a 34aa 873a e366 3cbb 5c47 b03a
00000040: 1d50 e1ba bcfb 88ba e02a d7b9 0081 e4b8
00000050: 6a0d c4ba 944a d3ba f661 98ba 9211 d8ba
00000060: 2c0b 3e3f d9f1 583f 9bfe bebe 8bff 683d
00000070: 8201 863e cc57 82be 2d87 bebe bbd6 683d
00000080: 1c57 843f f01b 783f a46c 123e ad3d fcbd
00000090: fd87 533e 31aa 16bf 5a8e 103e 57cd fcbd
000000a0: 6502 903f 1195 623f e4ee eebd 86c0 7bbe
000000b0: c406 d93d a6b5 34bf 9099 e8bd e905 80be
000000c0: 77c3 583f 0355 96be 0010 a6bd 973d 78bc
000000d0: 4b44 993d e4d1 2ebf 640b aabd ad8a 81bc
000000e0: 9382 2b3f 3ea1 4cbe 8e7a 42be cee6 fb3d
000000f0: cf2e eb3d bfe2 e8be 9e98 3fbe b503 f63d
00000100: 226d 253f cf57 69be 9550 503d eca9 1cbd
00000110: 0236 d43d 6cc1 85be 0333 453d 2562 1abd
00000120: 35e9 07be 5eca 2abf 4cf3 23bd a309 383e
00000130: 1049 f63e 2571 07bf eadf 2dbd 9bb8 393e
00000140: 522c 243d e3b5 02bf cf0f edbd de43 0b3d
00000150: 97de cbbe 47a5 a5be f981 f8bd 9e7c 0f3d
00000160: 968c 8a3e bf18 d1be 13e6 95bd 0255 a3bd
00000170: 476f 99bf 004c 81be 9a67 93bd 467b a4bd
00000180: 212b 93bd 0921 a93b 1c6d 5dbc 3d10 cabd
00000190: 0273 ba3e 9c93 abbe c891 0bbc 33aa d4bd
000001a0: 38bf 88be 720c d3bd 6bb5 4fbb a16e 45be
000001b0: 5208 2c3f e367 89bf ad8b 57bb 9bc4 43be
000001c0: 64e5 9bbe 1f17 b3bd 75f0 8b3d 1c77 213e
000001d0: 274f 423f 170e e7bf 1c62 893d 0ac8 1f3e
000001e0: 6305 6d3e 8a90 0d3f c112 acbd f5c7 5bbf
000001f0: 8faf 603e f402 e1be 8f74 acbd d58f 5bbf
00000200: 0f76 853e e49e d43e 9135 d7bd 85a1 8dbd
00000210: 4f97 d23e 5d0d 813e b710 d9bd f781 8fbd
00000220: 01bf 8b3e 5f1a ff3e 0860 b2bd f5d5 a03e
00000230: 14a2 293f ea10 3d3f 4874 b7bd 19e5 a03e
00000240: b2ce ae3e f964 4d3f a6c0 433c 56e7 783e
00000250: d691 d9bd f94d d93c 6a82 353c be5c 7c3e
00000260: f3e1 2f3b b45e f23e 54fe 293e 6f98 6dbc
00000270: 74ec d7bc 6ada 313f 78e5 2b3e fd5e 3dbc
00000280: ea69 04bd 9c87 a33e 38f6 9e3d c547 1b3e
00000290: e23c 4abe c0e4 9a3f 4e48 a33d 51cf 1b3e
000002a0: c09d dfbe a506 5f3e 3e7a 9fbc 9766 173e
000002b0: 4c96 28bf 6cf8 81bf cc9b b1bc 2f33 153e
000002c0: 6cbe 65be 3748 b93e 0146 14bd 790b d83d
000002d0: 61a5 89be 1a52 a9bf 6d36 07bd d15b d93d
000002e0: 9057 80be 0f36 953e 48e5 24bd 1cf5 e33d
000002f0: bfa5 973e daba 05bf 8099 1ebd 54c0 e13d
00000300: de14 2c3e 0c39 38be bfed 153e d49e 3dbf
00000310: d79f d7be a905 3dbf 679f 1a3e 1e9a 3cbf
00000320: 1e8c 013f b6be da3d f67b 453c 132d 59be
00000330: f9db 303d 4878 7dbf aabf 4a3c 199a 58be
00000340: 55f5 073f 6897 683e da38 3b3e 680d 7c3e
00000350: 7ffd c53d 7d9e 06bf 9650 3c3e 2af9 7c3e
00000360: 62e2 b23e 2723 d0bc cf34 6f3d 0f45 693e
00000370: bb5d f0be 0457 e4bf 419b 713d 0527 673e
00000380: fe71 d53e 6fb2 e33d e8ab 113e 7694 9d3e
00000390: 2643 b1be 3a1d 63bf de75 103e 5030 9c3e
000003a0: 1292 d93e 1479 083e 69e9 a13d 4922 153e
000003b0: e595 b9be ea9b 01bf 45b3 a43d 4d03 133e
000003c0: 1248 53be 1f81 243f ecba 483d 6812 b3bd
000003d0: 2fd9 85bd 80aa 03bf b89e 3f3d bad0 b3bd
000003e0: 4eee 33be f8a5 103f 55db 9e3d db36 1d3e
000003f0: 0555 5b3e 40e7 89bf 21ef a43d 8964 193e

module_list.0.bias f4 [64]
-0.16022426 -0.37954417 -0.62773335 -0.52279085 0.85342073 -1.0404297 0.533027 -0.33003706
-0.8540812 -0.26231825 0.1066858 -0.09756087 -0.9215725 -1.1511338 0.36485815 -1.0518299
-0.34429097 -0.089372955 0.6165888 -0.23012042 -0.13078925 -0.6818368 -0.51046634 -0.2026519
0.12498812 -0.9034176 -1.1134173 -0.6410695 0.8490601 -0.014846069 0.18878603 0.13630395
-0.31379482 0.31973284 0.22076659 -0.2275724 -0.05433141 -0.17069322 -0.7813881 -0.25106075
-0.10166138 -0.14023879 -0.18253747 -0.11294503 -0.2775572 0.164746 -0.25603685 -0.15768492
0.31154183 -0.9128333 0.4039736 -0.15939209 -0.15923722 -0.12524445 -0.17193682 -0.16039443
-0.51557106 -0.29234868 0.037490487 -0.6432798 0.2756401 -0.20346807 -0.75928766 -0.36283398
00000000: d411 24be 9d53 c2be 22b3 20bf 9fd5 05bf
00000010: c879 5a3f cd2c 85bf 7574 083f 9efa a8be
00000020: 11a5 5abf 944e 86be 167e da3d fecd c7bd
00000030: 2dec 6bbf 5a58 93bf b0ce ba3e 5da2 86bf
00000040: e846 b0be 2b09 b7bd c3d8 1d3f b0a4 6bbe
00000050: 9eed 05be db8c 2ebf ecad 02bf fb83 4fbe
00000060: c5f9 ff3d 6046 67bf 7584 8ebf 211d 24bf
00000070: 015c 593f ed3c 73bc 2051 413e 4393 0b3e
00000080: b7a9 a0be 06b4 a33e a310 623e bd08 69be
00000090: 9d8a 5ebd 34ca 2ebe 0d09 48bf 098b 80be
000000a0: d733 d0bd c29a 0fbe 1aeb 3abe b94f e7bd
000000b0: fa1b 8ebe 2db3 283e 4317 83be 2878 21be
000000c0: 6982 9f3e 71af 69bf a1d5 ce3e ae37 23be
000000d0: 150f 23be 1540 00be 3510 30be 703e 24be
000000e0: 77fc 03bf baae 95be a08f 193d fcad 24bf
000000f0: b320 8d3e ef59 50be ad60 42bf 60c5 b9be

module_list.1.weight f4 [64, 64]
-0.0024733115 0.01366667 -0.10675834 -0.28456214 0.0029426108 -0.25006688 -0.60372937 -0.27314892
0.0051284633 -0.13276185 -0.17737208 -0.0005367347 0.1324602 -0.22276442 -0.39991683 -0.35953036
0.30472973 -0.45030856 -0.21369962 -0.14327502 0.042739764 0.067363545 0.14479919 -0.0029832914
-0.14880253 -0.23179948 -0.012112222 -0.49639654 -0.27248934 -0.027334215 -0.31706414 -0.21346855
-0.24644154 -0.0661103 0.19565201 0.0010675236 -0.42459527 -0.0007081374 -0.24218047 0.068799
0.00035591167 -0.0014463748 0.00011195475 -0.001558636 0.17313993 -0.0012530215 0.11361375 0.0010731039
-0.5416086 -0.24634993 -0.09390732 0.0015858826 -0.0024758957 0.002605009 0.0029011304 0.27469012
-0.20336486 0.018147964 -0.11402255 0.09670834 -0.19091602 -0.0022978839 -0.044158656 -0.083838195
0.00042103464 -0.20378493 -0.17548789 -0.18009171 0.013747995 0.0061395345 -0.2639341 -0.14272864
-0.5201744 -0.16323848 -0.06748519 -0.00070112804 -0.23981668 -0.3142945 -0.054124516 -0.107484244
-0.22957474 -0.551442 -0.49186385 -0.17877865 0.05355413 -0.2061171 0.20380485 -0.0006705962
-0.012819888 -0.2518942 -0.47148392 -0.32794502 -0.081637494 -0.043019637 -0.090499006 -0.40604886
-0.23849007 -0.5487804 -0.08739275 -0.13904144 -0.04091061 -0.0007165803 -0.37240833 -0.06950578
0.001270534 -0.0022513082 -0.0005983687 -0.000670898 -0.43883455 0.0006275135 -0.0930899 0.0009198887
-0.4198211 0.066317335 -0.19052969 0.0014864849 0.0003256637 -0.00028812443 -0.002774375 -0.017286228
-0.23818123 -0.12920895 -0.22320369 -0.19551603 -0.2506695 -0.0010526594 -0.05162753 -0.0064760107
-0.00017216732 -0.31535965 0.31999218 0.033884816 -0.28733912 -0.17823961 0.21185452 -0.10110915
-0.027094038 -0.2967315 -0.18804869 -0.0006956975 0.022447862 -0.35291418 0.12629075 0.15967135
0.047359947 0.1424119 -0.19101928 -0.27175888 -0.76663375 -0.5863499 -0.30840653 -0.000460085
-0.45299223 0.07590827 0.385097 -0.8477343 -0.13854599 -0.46011952 -0.16814302 -0.4143832
-0.06961313 -0.1839103 0.3444499 0.022567183 0.12890044 -0.0018015157 0.2037343 -0.3468719
0.0018110722 0.002473225 0.0013405783 -0.0027824657 0.25276065 0.1097487 0.10910498 -0.00046810415
-0.2145425 0.038880263 -0.8584863 -0.0017157533 0.0018387954 0.0012383158 0.0020788643 -0.13269088
-0.40374112 0.5976762 -0.1633863 -0.17873727 -0.3756571 -0.0016128942 -0.81534517 0.23370221
0.002381911 0.014725476 -0.13489781 0.5838907 -0.41098216 -0.09945195 -0.18552598 -0.10902854
-0.12615283 -0.041048147 -0.2639017 0.0009039943 0.5402478 -0.7782998 0.13783154 -0.69236445
-0.29196835 -0.02317847 -0.23659815 0.19386917 -0.038774863 -0.86607015 0.40401295 -0.0031545511
0.10261251 -0.2212944 0.026247028 -0.054865036 -0.09431406 0.28296044 0.03241528 -0.008942033
0.014428918 0.063148774 -0.38378128 -0.3271093 0.4890155 -0.00024078414 0.38714123 0.014892377
-0.0006654486 -0.0015843379 0.0008572012 0.0007719337 -0.5637519 -0.21751152 0.06613662 0.00029652705
0.17203984 -0.13973635 0.17996219 0.0022307076 -0.0012960538 -0.0029492564 4.8121437e-05 -0.07512061
-0.35526684 0.055994995 -0.110420436 -0.07416348 0.27971777 0.0011946899 0.16001768 -0.40874743
00000000: 4817 22bb 2bea 5f3c 1ea4 dabd 21b2 91be
00000010: d1d8 403b c408 80be 028e 1abf 2dda 8bbe
00000020: ab0c a83b b9f2 07be 07a1 35be a8b3 0cba
00000030: a6a3 073e 5b1c 64be e6c1 ccbe 5d14 b8be
00000040: 8905 9c3e d88e e6be 13d4 5abe b0b6 12be
00000050: e40f 2f3d e6f5 893d 3d46 143e 5383 43bb
00000060: b15f 18be d85c 6dbe 5772 46bc b027 febe
00000070: b983 8bbe 01ec dfbc 3b56 a2be 8097 5abe
00000080: 2c5b 7cbe d664 87bd 0059 483e 26ec 8b3a
00000090: 8d64 d9be 4ca2 39ba 28fe 77be 7de6 8c3d
000000a0: a899 ba39 4994 bdba 40c9 ea38 254b ccba
000000b0: 984b 313e 6d3c a4ba 53ae e83d 64a7 8c3a
000000c0: dca6 0abf 2843 7cbe 7b52 c0bd 64dd cf3a
000000d0: a342 22bb ccb8 2a3b e420 3e3b 2fa4 8c3e
000000e0: e13e 50be 0aab 943c a884 e9bd 060f c63d
000000f0: 7d7f 43be 1898 16bb b5df 34bd 5cb3 abbd
00000100: 50be dc39 ffac 50be 19b3 33be f669 38be
00000110: 453f 613c 262e c93b 5f22 87be 7527 12be
00000120: 262a 05bf fd27 27be ad35 8abd e8cb 37ba
00000130: 8192 75be 35eb a0be abb1 5dbd b320 dcbd
00000140: a415 6bbe 4e2b 0dbf 94d5 fbbe c011 37be
00000150: 935b 5b3d 5c10 53be 38b2 503e f3ca 2fba
00000160: 820a 52bc 47f8 80be 5766 f1be 69e8 a7be
00000170: 8f31 a7bd 5c35 30bd 8b57 b9bd a3e5 cfbe
00000180: be36 74be df7c 0cbf f8fa b2bd e160 0ebe
00000190: e291 27bd e4d8 3bba 4eac bebe 0c59 8ebd
000001a0: 0c88 a63a af8a 13bb d8db 1cba 34df 2fba
000001b0: ecae e0be b87f 243a eba5 bebd b024 713a
000001c0: cbf2 d6be 62d1 873d 371a 43be 28d6 c23a
000001d0: d8bd aa39 680f 97b9 4ad2 35bb d99b 8dbc
000001e0: c8e5 73be 5a4f 04be 828f 64be 5b35 48be
000001f0: c157 80be 63f9 89ba 6477 53bd b734 d4bb
00000200: d087 34b9 d276 a1be 04d6 a33e ceca 0a3d
00000210: 1d1e 93be 7284 36be 64f0 583e 5012 cfbd
00000220: 51f4 ddbc 31ed 97be d68f 40be 785f 36ba
00000230: 94e4 b73c 2bb1 b4be 5d52 013e e380 233e
00000240: 81fc 413d 6dd4 113e 8f9a 43be fb23 8bbe
00000250: 1c42 44bf 071b 16bf 76e7 9dbe 9037 f1b9
00000260: 99ee e7be cc75 9b3d 6f2b c53e 1d05 59bf
00000270: 00df 0dbe c994 ebbe af2d 2cbe 092a d4be
00000280: 5491 8ebd fb52 3cbe bd5b b03e d0de b83c
00000290: 7afe 033e d620 ecba b99f 503e 3299 b1be
000002a0: 8061 ed3a d415 223b 58b6 af3a 075a 36bb
000002b0: d869 813e edc3 e03d 6f72 df3d e06b f5b9
000002c0: 07b1 5bbe e940 1f3d c2c5 5bbf 21e3 e0ba
000002d0: bc03 f13a fc4e a23a 8e3d 083b 1ee0 07be
000002e0: 28b7 cebe 4f01 193f bd4e 27be e706 37be
000002f0: 2156 c0be c067 d3ba 76ba 50bf a24f 6f3e
00000300: d619 1c3b 1f43 713c a722 0abe dc79 153f
00000310: 416c d2be 77ad cbbd 86fa 3dbe 5b4a dfbd
00000320: 352e 01be 1a22 28bd 201e 87be 08fa 6c3a
00000330: ae4d 0a3f a83e 47bf b623 0d3e cc3e 31bf
00000340: e07c 95be c6e0 bdbc c946 72be a485 463e
00000350: 64d2 1ebd c6b6 5dbf c9da ce3e 96bc 4ebb
00000360: 8226 d23d 009b 62be 0204 d73c 29ba 60bd
00000370: bb27 c1bd 31e0 903e e2c5 043d 9b81 12bc
00000380: 4567 6c3c 2554 813d fb7e c4be df7a a7be
00000390: 3d60 fa3e 007b 7cb9 6037 c63e 28ff 733c
000003a0: 8071 2eba 8fa9 cfba ccb5 603a 985b 4a3a
000003b0: 0b52 10bf 57bb 5ebe a372 873d 3077 9b39
000003c0: 362b 303e 0c17 0fbe 0248 383e 1031 123b
000003d0: 59e0 a9ba 5048 41bb 00d6 4938 d6d8 99bd
000003e0: 89e5 b5be 025b 653d 1c24 e2bd 06e3 97bd
000003f0: 2b37 8f3e 2497 9c3a addb 233e 5847 d1be

module_list.1.bias f4 [64]
-0.056973092 0.0412712 -1.06525 1.0797524 -0.05879733 -0.15849589 -0.28312257 0.07747589
-0.004513581 -0.076448955 -0.12823118 -0.31160006 -0.35262942 -0.11648448 -0.014568345 -0.08226528
-0.02666362 -0.07596166 -0.20308267 1.5227865 0.14144671 -0.05324885 0.007555204 -0.112172805
-0.11724738 -0.096155435 -0.22469682 0.53669524 -0.43287224 0.63747793 -0.19694397 0.044272974
-0.029209659 -0.32346863 0.48478857 -0.42544463 -0.5680378 -0.0111316005 0.51004946 -0.103287466
-0.43266988 -0.16442932 -0.15129748 -0.2378546 0.69241685 -0.072890274 0.7834974 0.46801496
-0.2985869 -0.08606312 -0.10665528 0.5085111 -0.11300758 -0.11591659 0.086865306 -0.3357259
-0.20169443 -0.098106466 -0.30970547 -0.21587332 -0.20117126 -0.12569241 -0.101432264 -0.16072555
00000000: 9e5c 69bd fd0b 293d 1d5a 88bf 5435 8a3f
00000010: 78d5 70bd bf4c 22be 71f5 90be aeab 9e3d
00000020: a9e6 93bb 4591 9cbd 094f 03be 0b8a 9fbe
00000030: d88b b4be 6a8f eebd 11b0 6ebc b37a a8bd
00000040: aa6d dabc c991 9bbd e7f4 4fbe abea c23f
00000050: 68d7 103e 771b 5abd a591 f73b dbba e5bd
00000060: 651f f0bd 24ed c4bd ec16 66be dc64 093f
00000070: 6ea1 ddbe c131 233f aeab 49be 9457 353d
00000080: 1849 efbc ae9d a5be 3536 f83e e1d3 d9be
00000090: ed6a 11bf 5161 36bc 9a92 023f 6188 d3bd
000000a0: e886 ddbe 2960 28be baed 1abe 2890 73be
000000b0: 3b42 313f 7f47 95bd 4993 483f a89f ef3e
000000c0: 62e0 98be dc41 b0bd 156e dabd c92d 023f
000000d0: 8570 e7bd ad65 edbd 70e6 b13d 44e4 abbe
000000e0: fc88 4ebe 0bec c8bd b791 9ebe e50d 5dbe
000000f0: d7ff 4dbe 83b5 00be b8bb cfbd 3d95 24be

module_list.2.weight f4 [2, 64]
0.28316078 0.07787485 0.13377014 -0.065690376 0.0006415567 3.414681e-06 -0.042371005 -0.025781669
-0.2009824 -0.020723278 -0.047354903 -0.0772422 0.09946601 0.00092508394 0.03768562 0.00038504027
0.0019876533 0.02124984 0.2689194 0.0079428125 -0.17113951 -0.0012505144 -0.29748574 -0.0018631124
0.0007451027 0.0014677304 0.078972675 0.14915144 0.04039634 -0.05814894 0.075775206 -0.020952873
-0.01024833 -0.002221404 -0.14605449 0.022098118 0.08711365 0.0025982023 -0.018544367 -0.019202003
0.08871123 0.0018779343 0.07086983 -0.056447644 -0.036628794 0.0001713936 -0.055118013 0.045196604
0.14030784 -0.022659663 0.08023774 0.014845985 0.00029328922 0.071353145 0.055013735 -0.01786014
0.02334957 0.0014673352 -0.14290984 -0.016052015 -0.041501418 -0.015496404 -0.0018719161 -0.15139167
0.21469583 0.045093577 0.03737898 0.036613796 -0.00047729566 0.011788608 0.03083168 -0.004452966
0.020719316 -0.05821572 0.010274679 -0.093181655 -0.100391075 -0.0009648119 0.054017663 -0.0017135562
-0.021384398 -0.0029836814 -0.011892979 -0.06795252 -0.019301556 0.002041571 -0.23558828 -0.0018205678
-0.00068205077 0.00029919925 0.020191953 -0.00938973 0.056530133 -0.047862276 0.06737052 0.009035563
0.0060457364 0.047350954 -0.06292228 -0.07599279 0.032627318 -0.002108123 -0.019561455 -0.0016894995
0.034478147 0.0019942606 0.019940026 0.066847146 -0.027291501 0.0011189805 -0.0014273252 -0.010788423
0.011944334 -0.0034775918 0.020828767 -0.08390513 -0.0005116556 -0.0019993577 -0.04893659 -0.052766073
0.06440755 -0.0021102682 0.23987539 -0.02450294 0.03730192 0.16203284 -0.0020744225 -0.023661928
00000000: 73fa 903e d97c 9f3d 0afb 083e ad88 86bd
00000010: 242e 283a c627 6536 388d 2dbd 1434 d3bc
00000020: 55ce 4dbe ddc3 a9bc 37f7 41bd 2931 9ebd
00000030: d6b4 cb3d 5581 723a 3d5c 1a3d 3bdf c939
00000040: 4a43 023b 2514 ae3c ceaf 893e 9222 023c
00000050: 323f 2fbe 4de8 a3ba 0d50 98be ae33 f4ba
00000060: ff52 433a dc60 c03a 6dbc a13d 28bb 183e
00000070: a276 253d 952d 6ebd 0830 9b3d 5ca5 abbc
00000080: 9de8 27bc fa94 11bb 4f8f 15be 1d07 b53c
00000090: a468 b23d 9a46 2a3b 5bea 97bc 854d 9dbc
000000a0: 3cae b53d 0525 f63a 3424 913d a535 67bd
000000b0: 1308 16bd 1fb8 3339 6dc3 61bd 1320 393d
000000c0: dcac 0f3e c2a0 b9bc af53 a43d 933c 733c
000000d0: 9dc4 9939 9921 923d 1556 613d 6e4f 92bc
000000e0: 9947 bf3c 9953 c03a f556 12be 847f 83bc
000000f0: 64fd 29bd a1e4 7dbc 155b f5ba 6b06 1bbe
00000100: 39d9 5b3e 0bb4 383d b41a 193d 59f8 153d
00000110: 8a3d fab9 0125 413c b892 fc3c 30ea 91bb
00000120: 8ebb a93c 9b73 6ebd 2157 283c 06d6 bebd
00000130: d699 cdbd 6eeb 7cba a041 5d3d 6899 e0ba
00000140: 552e afbc de89 43bb c5da 42bc b12a 8bbd
00000150: 4c1e 9ebc e1cb 053b 0e3e 71be 1ea0 eeba
00000160: a7cb 32ba d8dd 9c39 9869 a53c 62d7 19bc
00000170: 248c 673d 3c0b 44bd 8ef9 893d e609 143c
00000180: 501b c63b 13f3 413d 65dd 80bd 1ca2 9bbd
00000190: 39a4 053d 6f28 0abb 583f a0bc 3272 ddba
000001a0: f538 0d3d 24b2 023b 4459 a33c 28e7 883d
000001b0: 6d92 dfbc c1aa 923a 1615 bbba edc1 30bc
000001c0: 2bb2 433c 4fe8 63bb 17a1 aa3c 74d6 abbd
000001d0: a020 06ba a807 03bb bc71 48bd 3d21 58bd
000001e0: 1be8 833d 6d4c 0abb e5a1 753e 64ba c8bc
000001f0: e6c9 183d f0eb 253e 09f3 07bb a9d6 c1bc

module_list.2.bias f4 [2]
-0.51266325 0.10248267
00000000: e63d 03bf 6fe2 d13d

module_list.0.weight f4 [64, 24]
-0.0016821674 -0.0007425123 0.0028710468 -0.0010634755 1.1741649e-06 -0.00024737092 -0.002827295 0.002428473
-0.0007584053 -0.0015440694 0.0020917864 0.0020331875 0.00091598975 0.0010350407 -0.0028747849 0.0013449001
-0.0017190013 -0.0010450999 -0.0004103994 -0.00010895915 -0.0014957611 -0.0016120248 -0.0011625874 -0.0016484729
0.6970629 0.8961708 -0.050675396 -0.28181994 0.057869207 -1.1182256 -0.049764436 -0.28185895
0.38102722 0.6405459 0.047668517 -0.20562358 0.58189315 -0.7465992 0.045844298 -0.20589761
0.14347817 0.118532695 0.004086831 -0.6541118 0.94753075 0.110515445 0.007179138 -0.6583033
0.8554873 1.1327854 -0.11857297 -0.0911833 0.54149425 0.10567759 -0.120517395 -0.09184524
0.9099977 0.97949445 0.058639836 0.1844038 0.40351108 0.0067656734 0.06145494 0.18152907
1.0739461 0.77583903 0.07498675 -0.24280025 0.47621113 -0.54340744 0.07227299 -0.24224345
0.29223788 1.3229295 -0.02322488 0.15821378 -0.0031841062 0.9235826 -0.025647992 0.15985747
0.31744838 1.3165984 -0.0073992936 -0.00014882414 0.38718256 0.32896978 -0.01298816 0.0008819902
-0.36958024 0.89516103 0.013518517 0.031739354 1.4891287 0.015030605 0.014736186 0.031178007
0.10209091 -0.42322272 -0.09085273 -0.25028268 0.6893518 0.6126603 -0.08585676 -0.25545952
0.27566674 -0.44235688 0.17117707 -0.009733877 0.32067907 1.1009039 0.17105748 -0.008108632
0.50240403 -0.2869438 0.14062303 -0.2297955 -0.2027266 1.2818938 0.13937509 -0.23143987
0.6622138 0.7465771 -0.0146440305 -0.31958067 0.46858713 0.5762804 -0.014830611 -0.31872433
0.08760725 0.3283059 0.012628696 0.019455453 -0.57897407 0.91761494 0.011722126 0.018539364
0.1863146 0.45694065 0.07180378 -0.103499055 -1.1854614 0.81236535 0.069323614 -0.10338345
-0.31412303 1.4111592 0.010955925 0.51271564 -0.025224864 0.08170503 0.010086558 0.51609224
0.10881632 1.7186196 0.06277975 -0.1417196 0.16831861 -0.36822537 0.06463805 -0.13877623
0.08164796 1.5222718 0.047356207 -0.6921677 0.7778377 -0.19739942 0.049465764 -0.69165057
1.1054717 0.38938367 -0.21175009 0.059285343 0.065959804 -1.2860761 -0.21396336 0.05713606
0.8745676 0.41502604 -0.19811237 0.22288162 -0.06375569 -1.0752511 -0.19492337 0.22352296
0.8838108 0.34002134 -0.13963273 -0.06122545 -0.2298918 -0.7385281 -0.1380955 -0.0623027
0.019331224 0.17243779 -0.027805526 0.15040039 0.3337339 -0.44164473 -0.02322201 0.15437837
-0.09203822 0.3041461 0.041946784 0.10413485 0.3170817 -0.9444444 0.042268246 0.1046954
-0.18281493 0.3456497 -0.25876042 -0.011233065 0.23554824 -1.6220517 -0.2576935 -0.010333964
0.64024824 -0.58948374 -0.07401247 -0.31619096 -0.25416735 0.35340342 -0.07342671 -0.3182587
0.73058003 -0.57294434 -0.20262626 0.24147865 -0.39404047 0.10198299 -0.203809 0.2387613
0.710294 -0.5914401 -0.07155583 0.1385281 -0.5099596 -0.24289523 -0.07019428 0.13645664
0.769396 0.26675335 -0.26976037 -0.6808557 0.08701602 -0.36849642 -0.2719848 -0.6812187
0.7493799 0.19491148 -0.16369607 -0.2221447 -0.09886502 -0.24375537 -0.16072856 -0.22587702
00000000: 2c7c dcba 28a5 42ba 2c28 3c3b 5164 8bba
00000010: 0098 9d35 90b1 81b9 244a 39bb 0427 1f3b
00000020: b8cf 46ba 5f62 caba 5a16 093b 3a3f 053b
00000030: 081f 703a 34aa 873a e366 3cbb 5c47 b03a
00000040: 1d50 e1ba bcfb 88ba e02a d7b9 0081 e4b8
00000050: 6a0d c4ba 944a d3ba f661 98ba 9211 d8ba
00000060: b772 323f 736b 653f 0191 4fbd b44a 90be
00000070: 4308 6d3d 0422 8fbf cbd5 4bbd d14f 90be
00000080: 0016 c33e d1fa 233f 1040 433d fd8e 52be
00000090: f3f6 143f 2021 3fbf 3bc7 3b3d d3d6 52be
000000a0: f1eb 123e 45c1 f23d d3ea 853b df73 27bf
000000b0: 6091 723f ec55 e23d f93e eb3b 9186 28bf
000000c0: 3701 5b3f 1dff 903f 63d6 f2bd 4fbe babd
000000d0: 5e9f 0a3f 7e6d d83d d3d1 f6bd 5b19 bcbd
000000e0: 9cf5 683f 26c0 7a3f 5330 703d 5ad4 3c3e
000000f0: 0199 ce3e 95b2 dd3b 2db8 7b3d c2e2 393e
00000100: 1177 893f 639d 463f a792 993d a1a0 78be
00000110: f2d1 f33e c01c 0bbf dd03 943d ab0e 78be
00000120: 34a0 953e c155 a93f 1b42 bebc cb02 223e
00000130: 70ac 50bb e96f 6c3f bd1b d2bc adb1 233e
00000140: 9888 a23e 4c86 a83f c675 f2bb ad0d 1cb9
00000150: cb3c c63e ba6e a83e 4bcc 54bc 5c35 673a
00000160: 9f39 bdbe 4629 653f c57c 5d3c 2001 023d
00000170: c59b be3f ed42 763c 0b70 713c 0569 ff3c
00000180: 0a15 d13d a6b0 d8be ff10 babd 0d25 80be
00000190: 5c79 303f 4ed7 1c3f abd5 afbd 97cb 82be
000001a0: 3124 8d3e 9a7c e2be 0b49 2f3e d77a 1fbc
000001b0: 0c30 a43e 6bea 8c3f b129 2f3e 11da 04bc
000001c0: 8d9d 003f 4cea 92be 7cff 0f3e 834f 6bbe
000001d0: 9097 4fbe 1915 a43f 58b8 0e3e 93fe 6cbe
000001e0: d886 293f ad1f 3f3f 84ed 6fbc 14a0 a3be
000001f0: a7ea ef3e 1d87 133f 17fc 72bc d62f a3be
00000200: 6e6b b33d b617 a83e 97e8 4e3c 0b61 9f3c
00000210: a537 14bf d0e8 6a3f 290e 403c dddf 973c
00000220: 41c9 3e3e 20f4 e93e dc0d 933d 50f7 d3bd
00000230: 33bd 97bf 2df7 4f3f 8af9 8d3d b4ba d3bd
00000240: bcd4 a0be dda0 b43f 7b80 333c 5541 033f
00000250: 60a4 cebc f754 a73d 1742 253c 9f1e 043f
00000260: 17db de3d bafb db3f ab92 803d f11e 11be
00000270: b75b 2c3e 0988 bcbe f460 843d 5b1b 0ebe
00000280: 0c37 a73d cdd9 c23f 95f8 413d e731 31bf
00000290: 5f20 473f 1323 4abe 9d9c 4a3d 0310 31bf
000002a0: 1980 8d3f 4c5d c73e 04d5 58be 30d5 723d
000002b0: ef15 873d 249e a4bf 3619 5bbe 8007 6a3d
000002c0: aae3 5f3f 4b7e d43e f8dd 4abe 143b 643e
000002d0: 5892 82bd d4a1 89bf fe99 47be 34e3 643e
000002e0: 6d41 623f 4717 ae3e e2fb 0ebe 8ac7 7abd
000002f0: c268 6bbe 2d10 3dbf e868 0dbe 1e31 7fbd
00000300: 845c 9e3c 8893 303e 6ac8 e3bc 8f02 1a3e
00000310: 2bdf aa3e 421f e2be 163c bebc 5d15 1e3e
00000320: 897e bcbd 0ab9 9b3e 64d0 2b3d a744 d53d
00000330: 8858 a23e 1cc7 71bf 7821 2d3d 8b6a d63d
00000340: d633 3bbe fff8 b03e 3f7c 84be e40a 38bc
00000350: 8f33 713e 649f cfbf 67f0 83be c94f 29bc
00000360: 4fe7 233f 68e8 16bf da93 97bd c8e3 a1be
00000370: 3922 82be 4bf1 b43e be60 96bd cef2 a2be
00000380: 4b07 3b3f 7bac 12bf 427d 4fbe 2e46 773e
00000390: acbf c9be 75dc d03d 4eb3 50be d87d 743e
000003a0: d4d5 353f 9e68 17bf dd8b 92bd 4fda 0d3e
000003b0: b68c 02bf 87b9 78be 05c2 8fbd 4abb 0b3e
000003c0: 23f7 443f e593 883e 081e 8abe 8f4c 2ebf
000003d0: 7535 b23d 90ab bcbe 9741 8bbe 5964 2ebf
000003e0: 5cd7 3f3f e096 473e f19f 27be e679 63be
000003f0: be79 cabd 029b 79be 0796 24be 4e4c 67be

module_list.0.bias f4 [64]
-0.16022426 -1.0248005 -1.1276758 -0.4411068 -0.6552223 -0.8602132 0.6810131 -0.8998675
-0.7912399 -0.07888559 -0.4865556 -0.09756087 -0.056367774 -0.14328974 0.27035362 -0.22513486
-0.097663395 -0.5223111 0.5857462 0.063697524 0.050544936 -0.8012766 0.40384778 0.40042508
1.1549528 0.5774696 -0.042558365 -0.5702204 -0.20087862 -0.17421995 0.32626864 -1.3006268
-0.9792416 -1.0827551 -0.32104126 -0.04190053 -0.17189479 -0.17069322 0.25711387 0.4660877
-0.10166138 -0.14023879 -0.18253747 -1.2999227 0.031742673 -0.43091118 -0.20238282 -0.15768492
0.45538196 -0.6501707 -0.20188886 0.17024873 -0.8417456 -0.12524445 -0.17193682 0.12640767
-0.68068916 -0.88342357 -0.0026202954 -0.22248346 -0.13230476 -0.20346807 1.2726858 -0.78721887
00000000: d411 24be aa2c 83bf ae57 90bf c0d8 e1be
00000010: a6bc 27bf ef36 5cbf e056 2e3f b75d 66bf
00000020: b38e 4abf c58e a1bd d11d f9be fecd c7bd
00000030: e5e1 66bd 8cba 12be ca6b 8a3e c189 66be
00000040: bf03 c8bd 2eb6 05bf 77f3 153f d973 823d
00000050: 3508 4f3d 7720 4dbf 23c5 ce3e 8404 cd3e
00000060: 7ed5 933f 0cd5 133f ae51 2ebd f7f9 11bf
00000070: 20b3 4dbe b766 32be af0c a73e f07a a6bf
00000080: 94af 7abf b897 8abf 855f a4be e49f 2bbd
00000090: 3005 30be 34ca 2ebe 6ea4 833e 0ca3 ee3e
000000a0: d733 d0bd c29a 0fbe 1aeb 3abe de63 a6bf
000000b0: 9b04 023d 64a0 dcbe 713d 4fbe 2878 21be
000000c0: d327 e93e 9671 26bf f4bb 4ebe af55 2e3e
000000d0: a47c 57bf 1540 00be 3510 30be 0371 013e
000000e0: a541 2ebf 0c28 62bf 43b9 2bbb b4d2 63be
000000f0: e67a 07be ef59 50be 5ee7 a23f 2d87 49bf

module_list.1.weight f4 [64, 64]
-0.0024733115 -0.20812698 0.071701206 -0.7852557 0.21623637 -0.50193524 0.21670045 -0.300542
0.0054133493 -0.30535427 -0.4414539 -0.0005367347 -0.12552255 0.11346619 -0.34206444 -0.3615649
0.0014706566 -0.36164328 -0.34663954 -0.16556627 -0.71597004 -0.36419368 0.12920728 -0.36112636
-0.16954857 -0.10465608 -0.102797255 -0.11159357 0.027633304 -0.43829778 -0.28475392 -0.30309457
0.08544107 -0.34862208 -0.67014956 -0.5825882 -0.7557468 -0.0007081374 0.24988404 -0.49246037
0.00035591167 -0.0014463748 0.00011195475 -0.79256696 -0.005217588 -0.4233188 -0.0020127594 0.0010731039
-0.69120187 -0.23186256 -0.15131958 -0.3816202 -0.79792696 0.002605009 0.0029011304 0.39127126
-0.06968237 -0.33291143 -0.22144483 0.5040598 -0.28584534 -0.0022978839 -0.19083685 -0.79724205
0.00042103464 -0.12417607 -0.02543627 -0.007260694 -0.07161262 -0.15705463 -0.080551274 0.02049305
-0.0009144363 0.028979009 0.11169932 -0.00070112804 -0.02466246 0.021312598 -0.061017875 0.021361044
0.0028698002 0.023924427 0.02406376 -0.043271907 -0.024447354 -0.14187354 0.023796776 -0.010042768
-0.079550765 -0.002890408 -0.14450489 -0.09106067 0.025861051 -0.08022799 0.024598196 -0.064049795
-0.14626254 -0.019926753 0.02360979 -0.040728956 -0.07375336 -0.0007165803 -0.15543558 -0.15030654
0.001270534 -0.0022513082 -0.0005983687 -0.000670898 0.019807437 -0.12218914 -0.0011393316 0.0009198887
-0.043266155 -0.10370406 -0.101970784 -0.08205965 0.0003256637 -0.00028812443 -0.002774375 -0.064799815
-0.0015560102 -0.12639637 -0.085204616 0.024772704 0.021375315 -0.0010526594 0.0070890686 -0.05027954
-0.00017216732 -0.0019917618 -0.0025850297 -0.041217007 -0.0006889568 -0.08410251 -0.0025622533 -0.0017421584
-0.050865874 0.00069355406 0.0029411032 -0.0006956975 -0.08892791 -0.0003711183 -0.001006088 0.0025467728
0.00050153583 0.000224391 -0.0007178327 -0.0018824183 -0.00050092116 -0.06011204 -0.0027757648 -0.08418539
0.0009953068 -0.08643687 -0.04199861 0.0013423697 -0.08584005 0.0019587488 -0.0018709224 -0.002977603
0.0013415897 -0.0021055315 -0.08219051 0.0005265004 -0.0015434131 -0.0018015157 -0.0024333368 -0.06650995
0.0018110722 0.002473225 0.0013405783 -0.0027824657 -0.00034148037 -0.08536494 -0.0022098888 -0.00046810415
-0.0016497567 0.0013021673 0.0012812787 -0.06682092 0.0018387954 0.0012383158 0.0020788643 0.0021268385
-0.0016766886 0.00097133033 -0.0013609965 0.00043485896 -0.0028515104 -0.0016128942 -0.00027103 -0.08565438
0.002381911 -0.01955714 0.35655496 -0.08127977 0.3357435 -0.09849027 -0.0082517285 -0.74303925
0.042546544 0.13430655 0.25497895 0.0009039943 0.47855437 0.11209967 0.030753557 -0.25400963
0.0003789193 0.07631276 -0.23564707 -0.6992985 -0.2762141 0.30435154 -0.10861459 0.26362303
0.21520883 0.29204363 0.40749428 0.5074362 -0.29056886 -0.08421722 -0.30903682 0.2556926
-0.19911781 -0.5204751 -0.2311321 -0.18552345 -0.20990139 -0.00024078414 0.17113136 0.16790652
-0.0006654486 -0.0015843379 0.0008572012 -0.33594948 -0.022560999 -0.47531623 0.0023142016 0.00029652705
-0.14319989 0.09473224 -0.28155768 -0.0076677 0.5417468 -0.0029492564 4.8121437e-05 -0.3192211
0.25767103 0.17680453 -0.085590035 -0.29705358 -0.51224995 0.0011946899 -0.03704627 -0.68731487
00000000: 4817 22bb 3d1f 55be 15d8 923d 8406 49bf
00000010: 116d 5d3e d47e 00bf b9e6 5d3e a4e0 99be
00000020: 7762 b13b 6557 9cbe 3f06 e2be a8b3 0cba
00000030: fc88 00be f660 e83d 1223 afbe 091f b9be
00000040: 0cc3 c03a 4f29 b9be bd7a b1be 348a 29be
00000050: d049 37bf 9877 babe ea4e 043e 8ee5 b8be
00000060: 249e 2dbe ed55 d6bd 5e87 d2bd 2b8b e4bd
00000070: 3d5f e23c 9168 e0be 44cb 91be 362f 9bbe
00000080: bafb ae3d 987e b2be ec8e 2bbf 8024 15bf
00000090: 9f78 41bf 4ca2 39ba 9ae1 7f3e c423 fcbe
000000a0: a899 ba39 4994 bdba 40c9 ea38 abe5 4abf
000000b0: 4df8 aabb 3ebd d8be 80e8 03bb 64a7 8c3a
000000c0: 9bf2 30bf 616d 6dbe 85f3 1abe b963 c3be
000000d0: f144 4cbf ccb8 2a3b e420 3e3b b554 c83e
000000e0: a1b5 8ebd 5e73 aabe 6fc2 62be 100a 013f
000000f0: 525a 92be 1898 16bb bc6a 43be 0e18 4cbf
00000100: 50be dc39 0650 febd b95f d0bc 1eeb edbb
00000110: a3a9 92bd eed2 20be 11f8 a4bd 0ae1 a73c
00000120: c8b6 6fba 6365 ed3c 9dc2 e43d e8cb 37ba
00000130: ed08 cabc c297 ae3c e1ed 79bd 5bfd ae3c
00000140: 4213 3c3b 29fd c33c 5d21 c53c e23d 31bd
00000150: d145 c8bc 4c47 11be 75f1 c23c 6c8a 24bc
00000160: 83eb a2bd 006d 3dbb 17f9 13be 047e babd
00000170: 8eda d33c 934e a4bd 2882 c93c 8a2c 83bd
00000180: d9c5 15be 6e3d a3bc 5169 c13c 68d3 26bd
00000190: 000c 97bd e4d8 3bba 812a 1fbe f5e9 19be
000001a0: 0c88 a63a af8a 13bb d8db 1cba 34df 2fba
000001b0: 3543 a23c 4d3e fabd a055 95ba b024 713a
000001c0: da37 31bd cb62 d4bd 0fd6 d0bd e40e a8bd
000001d0: d8bd aa39 680f 97b9 4ad2 35bb c4b5 84bd
000001e0: 0af3 cbba 0d6e 01be c27f aebd 20f0 ca3c
000001f0: 491b af3c 63f9 89ba 6b4b e83b ebf1 4dbd
00000200: d087 34b9 3888 02bb 9a69 29bb 2ad3 28bd
00000210: 1c9b 34ba f03d acbd 7aeb 27bb 2359 e4ba
00000220: bc58 50bd a0cf 353a 86bf 403b 785f 36ba
00000230: d61f b6bd a892 c2b9 b6de 83ba c2e7 263b
00000240: 8079 033a 804a 6b39 f02c 3cba 7abb f6ba
00000250: 4050 03ba 0b38 76bd 9be9 35bb 6469 acbd
00000260: f474 823a d005 b1bd bc06 2cbd 74f2 af3a
00000270: e8cc afbd 5a5e 003b bd39 f5ba e423 43bb
00000280: 48d8 af3a f5fc 09bb 8053 a8bd d804 0a3a
00000290: 5a4c caba d620 ecba 9e78 1fbb 5e36 88bd
000002a0: 8061 ed3a d415 223b 58b6 af3a 075a 36bb
000002b0: b808 b3b9 d0d3 aebd c8d3 10bb e06b f5b9
000002c0: a63c d8ba 7cad aa3a 94f0 a73a 68d9 88bd
000002d0: bc03 f13a fc4e a23a 8e3d 083b 6e62 0b3b
000002e0: 55c4 dbba e0a0 7e3a 7763 b2ba c8fd e339
000002f0: 68e0 3abb c067 d3ba 0819 8eb9 906b afbd
00000300: d619 1c3b 4c36 a0bc 5f8e b63e 0276 a6bd
00000310: 92e6 ab3e 44b5 c9bd 4232 07bc d237 3ebf
00000320: 4945 2e3d a887 093e 9a8c 823e 08fa 6c3a
00000330: 1405 f53e 8394 e53d e2ee fb3c 8d0d 82be
00000340: b0a9 c639 dd49 9c3d 774d 71be 3a05 33bf
00000350: ef6b 8dbe f7d3 9b3e 5371 debd 99f9 863e
00000360: b45f 5c3e be86 953e 17a3 d03e 57e7 013f
00000370: 71c5 94be 147a acbd 133a 9ebe 24ea 823e
00000380: 8ae5 4bbe db3d 05bf e5ad 6cbe dcf9 3dbe
00000390: 64f0 56be 007b 7cb9 0f3d 2f3e b0ef 2b3e
000003a0: 8071 2eba 8fa9 cfba ccb5 603a 9201 acbe
000003b0: d8d1 b8bc a65c f3be dca9 173b 3077 9b39
000003c0: fea2 12be fa02 c23d 5428 90be 5441 fbbb
000003d0: ebaf 0a3f 5048 41bb 00d6 4938 f370 a3be
000003e0: 75ed 833e 3f0c 353e d449 afbd 6817 98be
000003f0: d022 03bf 2497 9c3a d4bd 17bd def3 2fbf

module_list.1.bias f4 [64]
0.64229554 0.041331176 -0.13976802 1.0151504 -0.066703245 -0.2436368 0.3439737 -0.0011797876
0.727514 -0.70615435 -0.115007974 0.53038836 -0.10079001 -0.1934751 -0.0035811043 -0.32769358
-0.01969387 -0.08566542 -0.034528043 0.066471726 -0.08362907 -0.052039035 0.07656432 -0.4579999
-0.18343768 -0.09939742 -0.35047144 -0.05986459 -0.12405341 -0.25478035 0.060830627 0.6194
-0.007824289 -0.112225175 0.4243167 -0.2622164 0.15580952 -0.09745825 -0.21648155 -0.110980354
-0.05810542 0.53977656 -0.08738144 0.5657264 0.33513758 0.8899055 -0.021653771 -0.048462614
-0.09702627 -1.1195083 -0.31517208 -0.4374384 -0.11418535 -0.07974361 0.0554636 -0.089472264
-0.008829217 -0.33304027 0.20415093 -0.12866656 -0.9378739 -0.08727128 -0.12587504 0.52774787
00000000: 7b6d 243f e14a 293d 591f 0fbe 73f0 813f
00000010: b69b 88bd ed7b 79be 521d b03e 1aa3 9aba
00000020: 5c3e 3a3f 88c6 34bf 4d89 ebbd 88c7 073f
00000030: fe6a cebd 561e 46be f6b0 6abb 74c7 a7be
00000040: 0a55 a1bc 5a71 afbd 476d 0dbd 5422 883d
00000050: b845 abbd e226 55bd c1cd 9c3d f77e eabe
00000060: 16d7 3bbe e090 cbbd fe70 b3be 9334 75bd
00000070: b70f febd 9272 82be 8929 793d 0091 1e3f
00000080: 7231 00bc 50d6 e5bd 0a40 d93e 3a41 86be
00000090: 888c 1f3e 3198 c7bd 57ad 5dbe ab49 e3bd
000000a0: f3ff 6dbd cc2e 0a3f 0af5 b2bd 72d3 103f
000000b0: 2797 ab3e d9d0 633f 4063 b1bc bc80 46bd
000000c0: b6b5 c6bd 0c4c 8fbf 3c5e a1be edf7 dfbe
000000d0: 02da e9bd 9e50 a3bd cd2d 633d 3c3d b7bd
000000e0: 6ca8 10bc 4184 aabe f10c 513e 2bc1 03be
000000f0: 8118 70bf 49bb b2bd 63e5 00be 7c1a 073f

module_list.2.weight f4 [2, 64]
0.030017333 -0.0155778695 -0.013584395 -0.0053062974 -0.002688653 0.011709299 -0.0033666578 0.047140125
-0.055502437 0.28691173 -0.0026815077 0.076961346 0.048761655 -0.035090715 -0.01458412 0.13943376
-0.0007312218 -0.0068623447 0.0069490494 0.07083214 -0.047830176 0.004544066 0.043707233 0.06873231
-0.0049008066 -0.017155102 0.22829814 0.046769187 -0.0035109748 -0.00034163636 -0.022054652 -0.01910253
0.000398193 0.012012074 0.077376716 -0.0089003295 -0.5694309 0.031680137 0.039227325 0.011601324
-0.056727983 -0.040329993 0.0021311024 -0.035300393 -0.10411653 0.06311884 0.057799287 -0.009874142
0.00084118807 -0.12087054 0.043143686 -0.19929145 -0.0064255106 0.022920948 -0.0232649 0.0045805518
-0.014512656 0.07198979 -0.03353819 -0.07009526 -0.1725624 0.094286844 0.023455266 -0.06577679
0.053893555 -0.058381487 -0.002490709 0.09155951 -0.0018440179 -0.025450144 -0.019443315 -0.008611078
0.23945057 0.128316 0.0026164646 0.17709589 -0.07054173 -0.12127124 -0.025035342 0.062030565
-0.0013850867 0.036447592 0.0061572935 -0.03658846 0.10280636 -0.004368672 -0.035715792 -0.0018101785
0.01782432 -0.0041574286 0.073874176 0.044093058 -0.021916255 -0.057091437 -0.020968316 -0.06451506
0.0013978592 0.00022356758 0.04245319 0.19182478 -0.082516536 0.04686701 -0.26523945 -0.016790785
-0.0309659 0.004482959 -9.637456e-05 0.005236973 0.010203744 0.1873429 0.03296771 -0.038831715
-0.00079888385 -0.012927813 -0.15290777 0.014323437 0.020275388 0.011678473 -0.027757408 -0.011182871
0.10134825 0.015651586 -0.024107628 -0.08008296 0.0010943271 0.26870498 -0.013718451 -0.037938956
00000000: e9e6 f53c 523a 7fbc 1591 5ebc 73e0 adbb
00000010: 1d34 30bb 5cd8 3f3c 25a3 5cbb 0116 413d
00000020: 8656 63bd 18e6 923e 3cbc 2fbb e99d 9d3d
00000030: 4dba 473d 48bb 0fbd 3cf2 6ebc b9c7 0e3e
00000040: 77af 3fba 85dd e0bb dab4 e33b 7110 913d
00000050: 93e9 43bd 63e6 943b 5b06 333d 86c3 8c3d
00000060: f296 a0bb db88 8cbc fdc6 693e 0c91 3f3d
00000070: 6218 66bb a81d b3b9 f5ab b4bc e97c 9cbc
00000080: 8fc4 d039 4ace 443c af77 9e3d b0d2 11bc
00000090: 39c6 11bf 08c3 013d d5ac 203d 7b13 3e3c
000000a0: 9a5b 68bd 1031 25bd f7a9 0b3b 2597 10bd
000000b0: 0c3b d5bd 7344 813d f2be 6c3d 27c7 21bc
000000c0: 2d83 5c3a f98a f7bd 6fb7 303d 0f13 4cbe
000000d0: 178d d2bb b6c4 bb3c 0896 bebc 7418 963b
000000e0: 7ec6 6dbc 626f 933d 575f 09bd 1b8e 8fbd
000000f0: 33b4 30be 7619 c13d 4225 c03c fbb5 86bd
00000100: 7dbf 5c3d 6d21 6fbd 2a3b 23bb 8d83 bb3d
00000110: f9b2 f1ba d27c d0bc 9647 9fbc 7b15 0dbc
00000120: 8832 753e 4565 033e fe78 2b3b a058 353e
00000130: 2f78 90bd 0e5d f8bd eb16 cdbc c313 7e3d
00000140: cc8b b5ba 124a 153d 1fc3 c93b c8dd 15bd
00000150: 248c d23d 1427 8fbb b94a 12bd 8343 edba
00000160: 4f04 923c 0a3b 88bb 584b 973d ec9a 343d
00000170: b889 b3bc b6d8 69bd bfc5 abbc 7920 84bd
00000180: 5f38 b73a 776d 6a39 65e3 2d3d b76d 443e
00000190: 6efe a8bd 9ff7 3f3d 77cd 87be d48c 89bc
000001a0: 33ac fdbc c9e5 923b b31c cab8 ea9a ab3b
000001b0: 9b2d 273c d1d6 3f3e 2609 073d 010e 1fbd
000001c0: 306c 51ba 2ecf 53bc db93 1cbe d9ac 6a3c
000001d0: 9218 a63c 1157 3f3c 8163 e3bc 5c38 37bc
000001e0: ac8f cf3d c137 803c 5c7d c5bc 8902 a4bd
000001f0: 866f 8f3a b393 893e 5bc3 60bc e165 1bbd

module_list.2.bias f4 [2]
-0.084970646 0.005760305
00000000: 1705 aebd f1c0 bc3b
