checkpoint.pt (torch_old, 313763 bytes, 12 tensors)

module_list.0.weight f4 [64, 24]
000000 2c 7c dc ba 28 a5 42 ba 2c 28 3c 3b 51 64 8b ba
       -0.0016821674 -0.0007425123 0.0028710468 -0.0010634755
000010 00 98 9d 35 90 b1 81 b9 24 4a 39 bb 04 27 1f 3b
       1.1741649e-06 -0.00024737092 -0.002827295 0.002428473
000020 b8 cf 46 ba 5f 62 ca ba 5a 16 09 3b 3a 3f 05 3b
       -0.0007584053 -0.0015440694 0.0020917864 0.0020331875
000030 08 1f 70 3a 34 aa 87 3a e3 66 3c bb 5c 47 b0 3a
       0.00091598975 0.0010350407 -0.0028747849 0.0013449001
000040 1d 50 e1 ba bc fb 88 ba e0 2a d7 b9 00 81 e4 b8
       -0.0017190013 -0.0010450999 -0.0004103994 -0.00010895915
000050 6a 0d c4 ba 94 4a d3 ba f6 61 98 ba 92 11 d8 ba
       -0.0014957611 -0.0016120248 -0.0011625874 -0.0016484729
000060 4c 53 a3 3f 8f 7a 54 3f dd fa c4 bd 92 22 11 3f
       1.2759795 0.8299951 -0.09618161 0.56693375
000070 25 77 3e 3f f6 67 a9 bf 29 1d c3 bd 0c 20 11 3f
       0.7440055 -1.3234851 -0.09527046 0.56689525
000080 8a 82 ac 3f 99 11 ae 3f e3 5b a5 bd 9f ba 5f 3f
       1.3477337 1.359912 -0.080741666 0.87394136
000090 1f a1 43 3f 82 ac 9b bf 67 18 a9 bd ab a8 5f 3f
       0.76417726 -1.216202 -0.082566075 0.8736674
0000a0 8a 15 bd 3f 3b eb c1 3f 10 6a 94 be 69 4a 06 3f
       1.4772198 1.5149912 -0.2898717 0.5245729
0000b0 c6 de 41 3f 98 c4 64 bf c0 d4 92 be b7 37 05 3f
       0.7573055 -0.8936248 -0.2867794 0.5203814
0000c0 e9 82 a4 3f cc d0 24 3f 8e 73 aa be 77 90 7c bf
       1.2852451 0.643811 -0.33291286 -0.98657936
0000d0 bf ec 19 3f 64 cf db bd 68 72 ab be db bb 7c bf
       0.6012687 -0.10732916 -0.33485723 -0.98724145
0000e0 1e 21 b1 3f 1b d0 06 3f 8a 5e 55 3e fd 6a 99 be
       1.3838232 0.52661294 0.20836845 -0.29964438
0000f0 f7 d5 12 3f 7a 25 f7 be 86 40 58 3e c9 e3 9a be
       0.57357734 -0.4827078 0.21118364 -0.3025191
000100 8d 3f b6 3f 2a 39 cd 3e 88 6e a4 be 8d b6 cd bd
       1.4238144 0.40082675 -0.3211558 -0.100445844
000110 5c c2 10 3f 1d d5 6e bf 3c d2 a5 be a9 92 cc bd
       0.5654657 -0.93293935 -0.3238696 -0.09988911
000120 18 97 00 bd e9 da 40 bf df 25 e1 bc 4d 82 95 bd
       -0.031394094 -0.7533403 -0.027483879 -0.073002435
000130 c7 84 df 3f 5e 37 0a 3f 6a ff f4 bc 6b 24 92 bd
       1.7462395 0.53990734 -0.029906947 -0.071358524
000140 28 c6 31 3e 71 2e 13 bf c1 65 17 3c 04 d8 fc bc
       0.17360747 -0.5749274 0.009240569 -0.030864723
000150 d2 71 3b be 3b bb 57 3f e4 53 6f 3b 8d 66 f4 bc
       -0.18305138 0.84270066 0.0036518509 -0.029834056
000160 9f 1d fb 3e 4d d4 7e be 72 72 ac 3d 32 37 88 bd
       0.49046037 -0.24885674 0.08420266 -0.06651153
000170 a4 0d 0e c0 4f 86 41 3e ea f0 ae 3d 68 5d 89 bd
       -2.2195826 0.18898891 0.085420445 -0.06707269
000180 1c 53 b8 3e b1 27 36 bf 14 42 f9 bd 60 03 4a be
       0.36000907 -0.71154314 -0.121708065 -0.1972785
000190 fa e3 73 bf 30 3c d4 3f 90 06 ef bd 76 50 4f be
       -0.9526974 1.6580868 -0.116711736 -0.20245537
0001a0 16 34 3a 3e cd c0 52 bf 1b 35 3e 3d 3d e6 17 3e
       0.18183932 -0.8232544 0.046437364 0.14833923
0001b0 43 2d 3e 3f d0 6f 54 bf ba b7 3d 3d 41 90 19 3e
       0.74287814 -0.8298311 0.046317793 0.14996435
0001c0 27 dd 48 3e 78 c1 60 bf 2f 8c 2c bd e2 0e ee 3d
       0.19615613 -0.8779521 -0.042125877 0.116239324
0001d0 f8 43 d1 3f fe 60 56 c0 15 a9 31 bd 72 b0 ea 3d
       1.6348867 -3.34967 -0.04337414 0.114594355
0001e0 7e 2d 89 3f 49 54 57 be 3a 7f 80 be 9a 43 2b 3e
       1.0717008 -0.21028246 -0.25097066 0.16725007
0001f0 f4 ee c0 3e 18 14 26 bf b1 97 80 be 1c 24 2c 3e
       0.37682307 -0.6487441 -0.2511573 0.1681065
000200 c2 2e 95 3f 7e 28 f2 bd b2 dc 26 be 1d 27 07 3f
       1.1654894 -0.118241295 -0.16295126 0.5279406
000210 e8 ff a3 3e 37 60 c3 3d 5e ca 27 be 0f eb 06 3f
       0.32031178 0.09539836 -0.1638579 0.5270242
000220 69 2d 8b 3f 6c 22 18 3f d9 19 0a be a5 87 aa 3f
       1.0873233 0.59427524 -0.13486423 1.3322645
000230 a3 41 21 3e 50 16 a1 3f 24 a4 0c be 6f 8b aa 3f
       0.15747695 1.2584934 -0.1373449 1.3323802
000240 e5 51 16 3f 01 96 4e 3f c7 90 4c bd 66 51 fd 3c
       0.5871871 0.8069764 -0.049942758 0.030922603
000250 8a 56 66 3e 7d 22 84 3e 5c 20 50 bd ac 7d 0c 3d
       0.2249395 0.25807562 -0.05081211 0.034299538
000260 1a 64 c5 3e d5 99 6e 3f 72 c1 33 3d 20 82 a2 3e
       0.38552934 0.9320348 0.043885656 0.31739902
000270 90 f3 b3 bd af 00 99 3f e6 5d 3b 3d e6 03 a4 3e
       -0.0878669 1.1953334 0.045743845 0.32034224
000280 2c bb 0f 3f 1e 3b c4 3f a0 63 20 3d ed 19 48 3f
       0.56144977 1.5330541 0.03915751 0.7816456
000290 c9 44 9c bf 06 d6 9b 3f 0a 08 29 3d d7 3b 48 3f
       -1.2208492 1.217469 0.041267432 0.7821631
0002a0 44 07 92 be fb 37 e1 3f 08 60 10 3b 39 3f d7 3e
       -0.28521168 1.7595209 0.0022029895 0.42040423
0002b0 3a 40 9d bf 5e da 26 bf 00 08 2b b7 91 25 d6 3e
       -1.2285225 -0.6517695 -1.0194257e-05 0.41825536
0002c0 d1 4c 75 3d 32 f4 03 40 ba bc 98 bc 37 fb 64 be
       0.05988771 2.0617795 -0.01864468 -0.22361456
0002d0 7c de 7a 3c ca 8f ff be e3 3a 7d bc 06 53 64 be
       0.0153118335 -0.4991439 -0.015455934 -0.22297296
0002e0 dc a9 45 3e f5 7e 0e 40 94 fc 9f 3d 69 53 41 be
       0.19303077 2.2264988 0.07811847 -0.18879475
0002f0 f5 5f 97 3f 06 93 14 3f 8c 22 a3 3d cb 6d 42 be
       1.1826159 0.5803684 0.07965574 -0.18987195
000300 fb 24 b7 3f ed 5c c6 3f 01 77 da be 70 c3 ae be
       1.430816 1.5497109 -0.42668918 -0.34133482
000310 a7 74 86 be 73 33 1e bf 27 1e d8 be 04 ba ac be
       -0.26260874 -0.61797255 -0.42210504 -0.3373567
000320 1d 0a de 3f 04 0c 0c 40 ff 88 d5 bd 5a 03 be 3e
       1.7346836 2.1882334 -0.104265206 0.37111932
000330 8c 20 ac bc 9d f3 94 bf 83 e0 d4 bd de 4c be 3e
       -0.021011613 -1.1636845 -0.10394385 0.3716802
000340 90 e5 c8 3f 7d 29 17 40 5d 90 ca be e8 08 1d 3e
       1.5695057 2.3619072 -0.39563265 0.15335429
000350 b4 37 0d be b3 40 68 bf 7d 04 ca be 87 f4 1d 3e
       -0.1379078 -0.90723723 -0.3945655 0.15425311
000360 9b 17 79 3f 4b 27 4a 3e c4 70 da be a9 4f 1f 3f
       0.97301644 0.19741552 -0.42664158 0.62230927
000370 54 8c 57 3b aa 26 b9 3e f3 23 da be 2d c8 1e 3f
       0.0032890039 0.3616231 -0.42605552 0.62024194
000380 b0 76 82 3f 22 d7 96 3e 8a 25 86 3e 98 8e 03 bf
       1.019247 0.29461008 0.26200515 -0.51389456
000390 61 36 54 bd a5 7e 0a bf 7d 8a 85 3e a4 40 04 bf
       -0.051809672 -0.54099494 0.2608222 -0.51661134
0003a0 90 bd 7f 3f de 83 8d 3d f0 77 ef bd a5 2b 1a be
       0.99898624 0.06909917 -0.11692798 -0.15055712
0003b0 bc 7b 86 be f5 f9 0f be 3c ae ec bd a9 4a 1c be
       -0.26266277 -0.14060195 -0.1155667 -0.15262856
0003c0 b4 52 c3 3d 62 a5 db 3f a0 68 32 3e 42 41 d1 bd
       0.09537259 1.7159846 0.17422724 -0.10217525
0003d0 93 04 79 be c9 e7 30 40 96 21 30 3e a8 ff d1 bd
       -0.24318151 2.764147 0.17200312 -0.10253841
0003e0 f6 bf 0f 3e d3 8b e3 3f a1 10 da bc 4a 5f ea bd
       0.14038071 1.7777046 -0.026619257 -0.11443956
0003f0 36 37 e1 be e8 fc 10 3f bb c1 c1 bc f8 03 f2 bd
       -0.43987435 0.56635904 -0.023651948 -0.11817163

module_list.0.bias f4 [64]
000000 d4 11 24 be ad 04 9a 3e 7b 4c 64 be bd 44 3a c0
       -0.16022426 0.30081692 -0.222948 -2.9104455
000010 0f 94 5f be 47 93 59 c0 66 cf 81 bf f3 e2 44 be
       -0.21833824 -3.399614 -1.0141418 -0.192272
000020 a1 13 e1 bf 27 76 12 bf 70 e4 52 bf fe cd c7 bd
       -1.7584115 -0.57211536 -0.8237982 -0.09756087
000030 91 72 dd bf 19 e4 91 bf e5 96 59 3c 25 1f 2c c0
       -1.7300588 -1.1397735 0.013280605 -2.689401
000040 50 f7 c2 bf 4d 96 49 bf 45 fb 84 3f 50 f3 6f bf
       -1.5231724 -0.78744966 1.0389181 -0.9373064
000050 51 01 94 be 69 0d 7a bf 3f 6a f3 bf fb 83 4f be
       -0.28907254 -0.9767671 -1.9016799 -0.2026519
000060 09 95 35 be c1 cc 33 c0 00 88 98 bf 3d bf 29 bf
       -0.17732634 -2.8093722 -1.1916504 -0.6630743
000070 a7 bd 17 3e 8b fb 64 bf d5 2c cb be 2b eb 1c be
       0.1481844 -0.89446324 -0.39682642 -0.15324084
000080 d4 f1 07 c0 c8 75 0e bf f6 76 b2 3f ae ee cb 3e
       -2.124135 -0.5564847 1.3942554 0.39830536
000090 e7 69 ff be 34 ca 2e be 65 37 d4 bf 99 b1 23 bf
       -0.49885485 -0.17069322 -1.6579405 -0.6394287
0000a0 d7 33 d0 bd c2 9a 0f be 1a eb 3a be b9 4f e7 bd
       -0.10166138 -0.14023879 -0.18253747 -0.11294503
0000b0 c8 96 d9 be 94 bd 6d 3f c1 8b 87 bf 28 78 21 be
       -0.4249785 0.928674 -1.0589525 -0.15768492
0000c0 5f 10 22 3e 11 36 07 be 22 67 aa be ae 37 23 be
       0.15826558 -0.13204218 -0.3328181 -0.15939209
0000d0 15 0f 23 be 15 40 00 be 35 10 30 be 1e bc f9 3e
       -0.15923722 -0.12524445 -0.17193682 0.48776335
0000e0 16 25 78 bf e8 4e c8 bf f8 86 76 3e 6e ca 69 bf
       -0.9693159 -1.564908 0.24074924 -0.9132451
0000f0 f5 fe 7e bf ef 59 50 be d4 d6 f3 bf 64 76 fe bf
       -0.99607784 -0.20346807 -1.9049935 -1.987988

module_list.1.weight f4 [64, 64]
000000 48 17 22 bb 2b ea 5f 3c a4 4f 4e be ac 80 34 bd
       -0.0024733115 0.01366667 -0.20147568 -0.044068024
000010 f1 20 04 bf 5e c3 b7 be 2a af 5d bf 5d 1e c5 bf
       -0.51612765 -0.3589124 -0.86595404 -1.5399891
000020 ec d4 9b bb 57 9f e5 be 16 41 0f bf a8 b3 0c ba
       -0.004755607 -0.4484813 -0.5595869 -0.0005367347
000030 c4 69 35 bf ae 13 23 be ae f4 cc 3e 9c 93 cf be
       -0.7086451 -0.15925476 0.40030426 -0.40542305
000040 10 17 c8 be d3 ba 1c 3e d6 5a 65 bf 8c f9 80 be
       -0.39080095 0.15305643 -0.8959173 -0.2519039
000050 28 db 0b 3e b2 24 c3 bd 54 73 6f bd 53 83 43 bb
       0.1365782 -0.095284835 -0.058459595 -0.0029832914
000060 81 cb 61 bd 0b 91 81 be 57 72 46 bc de d4 d4 be
       -0.055125717 -0.25305972 -0.012112222 -0.41568655
000070 2b 10 03 be 01 21 fd be 26 72 d2 be 80 97 5a be
       -0.12799136 -0.49439242 -0.41102713 -0.21346855
000080 6a 5f bd be 2f 75 f0 bd d1 9e 6b 3b 02 2d 33 bf
       -0.36986858 -0.11741101 0.0035952816 -0.6999055
000090 99 03 54 be 4c a2 39 ba 11 46 31 bf 30 cf 6d 39
       -0.20704497 -0.0007081374 -0.6924754 0.00022679265
0000a0 a8 99 ba 39 49 94 bd ba 40 c9 ea 38 25 4b cc ba
       0.00035591167 -0.0014463748 0.00011195475 -0.001558636
0000b0 2e 89 b7 be 6b 43 9a bc 46 b3 60 be 64 a7 8c 3a
       -0.35846847 -0.018830976 -0.21943387 0.0010731039
0000c0 8d 33 7b be a3 c1 87 bf e5 d2 96 bf 64 dd cf 3a
       -0.24531384 -1.0605968 -1.178311 0.0015858826
0000d0 a3 42 22 bb cc b8 2a 3b e4 20 3e 3b 75 93 41 bf
       -0.0024758957 0.002605009 0.0029011304 -0.75615627
0000e0 ad 3e c5 be 03 da f1 be 1f c4 a2 bf 13 7e 73 bd
       -0.3852438 -0.47236642 -1.2716101 -0.059446406
0000f0 bd a7 c9 bd 18 98 16 bb 05 bc bb be f3 26 c4 bd
       -0.09846447 -0.0022978839 -0.36666885 -0.095777415
000100 50 be dc 39 ff ac 50 be 19 b3 33 be f6 69 38 be
       0.00042103464 -0.20378493 -0.17548789 -0.18009171
000110 45 3f 61 3c 26 2e c9 3b 5f 22 87 be 75 27 12 be
       0.013747995 0.0061395345 -0.2639341 -0.14272864
000120 26 2a 05 bf fd 27 27 be ad 35 8a bd e8 cb 37 ba
       -0.5201744 -0.16323848 -0.06748519 -0.00070112804
000130 81 92 75 be 35 eb a0 be ab b1 5d bd 34 d2 2b be
       -0.23981668 -0.3142945 -0.054124516 -0.16779405
000140 a4 15 6b be 4e 2b 0d bf 94 d5 fb be c0 11 37 be
       -0.22957474 -0.551442 -0.49186385 -0.17877865
000150 93 5b 5b 3d 5c 10 53 be 38 b2 50 3e f3 ca 2f ba
       0.05355413 -0.2061171 0.20380485 -0.0006705962
000160 82 0a 52 bc 47 f8 80 be 57 66 f1 be 69 e8 a7 be
       -0.012819888 -0.2518942 -0.47148392 -0.32794502
000170 8f 31 a7 bd 5c 35 30 bd 8b 57 b9 bd a3 e5 cf be
       -0.081637494 -0.043019637 -0.090499006 -0.40604886
000180 be 36 74 be df 7c 0c bf 14 40 3a be e1 60 0e be
       -0.23849007 -0.5487804 -0.18188506 -0.13904144
000190 e2 91 27 bd e4 d8 3b ba 4e ac be be 0c 59 8e bd
       -0.04091061 -0.0007165803 -0.37240833 -0.06950578
0001a0 0c 88 a6 3a af 8a 13 bb d8 db 1c ba 34 df 2f ba
       0.001270534 -0.0022513082 -0.0005983687 -0.000670898
0001b0 ec ae e0 be b8 7f 24 3a eb a5 be bd b0 24 71 3a
       -0.43883455 0.0006275135 -0.0930899 0.0009198887
0001c0 cb f2 d6 be 62 24 e9 bc 37 1a 43 be 28 d6 c2 3a
       -0.4198211 -0.028459731 -0.19052969 0.0014864849
0001d0 d8 bd aa 39 68 0f 97 b9 4a d2 35 bb 3c 3f e2 bd
       0.0003256637 -0.00028812443 -0.002774375 -0.11047217
0001e0 c8 e5 73 be 5a 4f 04 be 82 8f 64 be 71 bc 8f be
       -0.23818123 -0.12920895 -0.22320369 -0.28073457
0001f0 c1 57 80 be 63 f9 89 ba 64 77 53 bd 96 78 cb bd
       -0.2506695 -0.0010526594 -0.05162753 -0.09935109
000200 d0 87 34 b9 c6 e4 c6 3d 90 96 5d 3d 75 72 9a bf
       -0.00017216732 0.09711604 0.054098666 -1.206618
000210 ab c8 e3 be 3d be c9 be 17 35 56 3e 02 0b 16 be
       -0.44489035 -0.39402953 0.2091869 -0.14652637
000220 7a b6 37 be e7 c8 28 3e e6 ed 8e bd 78 5f 36 ba
       -0.17940703 0.16482888 -0.06978969 -0.0006956975
000230 a4 8e 3c bd 54 d9 f7 bd 5b c1 ae bf 15 fd 8e 3c
       -0.04603447 -0.12101999 -1.3652757 0.017454663
000240 13 28 49 3d 68 98 6f 3e b5 bb 0f bf 8d 8e 81 be
       0.049110483 0.23397982 -0.56145793 -0.2530407
000250 cf 29 19 bf 49 79 ec be e4 a7 26 3e 90 37 f1 b9
       -0.5982942 -0.46186283 0.16274983 -0.000460085
000260 64 86 cd 3d 53 ba a2 3c 79 5c 9a 3e 84 3b c6 be
       0.100353986 0.019864237 0.30148676 -0.38717282
000270 b8 da 94 bf 24 e4 4f 3e 41 8c f3 be dd 6a 4a be
       -1.1629248 0.20301872 -0.47567943 -0.19767328
000280 b7 e6 30 be 81 ef 43 be 1f c0 09 3f ae 4a f2 3e
       -0.1727551 -0.19134332 0.5380878 0.473226
000290 7b aa 4c be d6 20 ec ba 7a cf d0 3d 0f d0 0c bf
       -0.19986908 -0.0018015157 0.10195823 -0.5500497
0002a0 80 61 ed 3a d4 15 22 3b 58 b6 af 3a 07 5a 36 bb
       0.0018110722 0.002473225 0.0013405783 -0.0027824657
0002b0 3d 86 38 be d7 a1 06 3e 9f 52 81 3e e0 6b f5 b9
       -0.18019958 0.13147675 0.25258347 -0.00046810415
0002c0 c2 f5 5a bd a2 c4 30 bf a1 22 a3 be 21 e3 e0 ba
       -0.05345703 -0.6905004 -0.31862357 -0.0017157533
0002d0 bc 03 f1 3a fc 4e a2 3a 8e 3d 08 3b d1 58 8d be
       0.0018387954 0.0012383158 0.0020788643 -0.27606824
0002e0 b0 c1 0a be c0 f5 01 bd 85 f7 7f be 65 1d 08 3d
       -0.13550448 -0.031728506 -0.24996765 0.033231158
0002f0 09 83 04 be c0 67 d3 ba 02 50 79 bf 8e d1 ad 3c
       -0.12940611 -0.0016128942 -0.9738771 0.021218088
000300 d6 19 1c 3b e1 a5 f5 3e 80 65 eb 3a 40 7c 0e 3d
       0.002381911 0.47978118 0.0017959327 0.034786463
000310 28 99 45 be 45 55 43 3e 5a 0d a9 bb 7e ed 03 3e
       -0.19296706 0.19075496 -0.0051590623 0.12883565
000320 57 94 bf bf 70 07 22 be 95 71 79 be 08 fa 6c 3a
       -1.4967145 -0.1582315 -0.24359734 0.0009039943
000330 cf ec 61 3e 01 fc b7 be 2e 7d 39 3c 68 e3 94 3e
       0.22062992 -0.3593445 0.011321349 0.29079747
000340 c1 fc 51 bd e7 1d 0d bf 7d 79 0f bf 23 7b ab be
       -0.051266436 -0.5512375 -0.5604475 -0.33492383
000350 59 3d 1d 3d f7 c3 e1 be 7c 6e 14 3f 96 bc 4e bb
       0.038388584 -0.44094822 0.57981086 -0.0031545511
000360 9c f1 c2 bc de b5 fa 3e 02 04 d7 3c f9 90 33 be
       -0.023796849 0.4896688 0.026247028 -0.17535771
000370 c3 8e 71 be 5e dc 33 be 03 8e 41 3e c5 28 a6 be
       -0.23589616 -0.17564532 0.1890183 -0.3245298
000380 7c 40 e1 3e 95 be 52 3e 6e 11 f4 3d e5 36 1c bd
       0.4399451 0.20580514 0.11917387 -0.03813829
000390 4c 3e b0 be 00 7b 7c b9 e2 1f a7 bd 7e 85 16 3d
       -0.3442253 -0.00024078414 -0.08160378 0.0367484
0003a0 80 71 2e ba 8f a9 cf ba cc b5 60 3a 98 5b 4a 3a
       -0.0006654486 -0.0015843379 0.0008572012 0.0007719337
0003b0 7e c1 c0 bf 4d 49 d2 3c 33 2f d3 3e 30 77 9b 39
       -1.5059049 0.025669718 0.41246948 0.00029652705
0003c0 c0 56 8b be 80 44 0f 3d 2b 8b c0 3d 10 31 12 3b
       -0.27214622 0.034977436 0.09401544 0.0022307076
0003d0 59 e0 a9 ba 50 48 41 bb 00 d6 49 38 f3 59 9b bd
       -0.0012960538 -0.0029492564 4.8121437e-05 -0.07585516
0003e0 9e 66 89 be db 84 8d bf 61 a6 12 bc 74 06 2c 3e
       -0.26836103 -1.1056169 -0.008950801 0.16799337
0003f0 dc c5 15 bd 24 97 9c 3a 2c 3e ef 3e de 00 9b 3e
       -0.036565647 0.0011946899 0.4672712 0.302741

module_list.1.bias f4 [64]
000000 92 03 d8 bd 8b 5e 4e bd 44 ef ac be 92 48 69 be
       -0.10547556 -0.050383132 -0.33776295 -0.2278159
000010 78 d5 70 bd 44 b8 d9 be 79 e8 d4 be e8 98 31 bc
       -0.05879733 -0.42523396 -0.41583613 -0.010839678
000020 3c 0a 90 3f 45 91 9c bd aa 21 87 be 0b 8a 9f be
       1.1253123 -0.076448955 -0.2639287 -0.31160006
000030 e7 99 0e bf 6a 8f ee bd 11 b0 6e bc 96 80 98 be
       -0.55703586 -0.11648448 -0.014568345 -0.29785603
000040 aa 6d da bc c9 91 9b bd 52 03 74 be 1c d8 de 3f
       -0.02666362 -0.07596166 -0.23829392 1.7409701
000050 30 ba e4 bd 77 1b 5a bd 67 78 a0 bd f2 3e f2 bd
       -0.11168325 -0.05324885 -0.07835465 -0.11828412
000060 65 1f f0 bd d6 87 cb bd eb 14 15 3e 3f f6 3b 3f
       -0.11724738 -0.09938018 0.14558761 0.73422617
000070 ad df 64 bf 4e 52 20 bd 08 41 c5 be b3 23 0e bd
       -0.894038 -0.039140992 -0.38526177 -0.034702014
000080 18 49 ef bc df f5 cc be d0 86 8a 3e c4 67 ec be
       -0.029209659 -0.40031335 0.2705598 -0.46172917
000090 7e 05 ee 3d 51 61 36 bc 7b 6b a9 3e 61 88 d3 bd
       0.11622141 -0.0111316005 0.33089814 -0.103287466
0000a0 5c f2 cc be 72 23 9f be ba ed 1a be d7 0b 9c be
       -0.40028656 -0.3108173 -0.15129748 -0.30477783
0000b0 ea 23 a2 3e 7f 47 95 bd 26 62 fc 3f 01 dd 24 40
       0.31668025 -0.072890274 1.9717453 2.575989
0000c0 a0 f7 4e bf dc 41 b0 bd b0 b7 d6 be 67 61 40 bf
       -0.80846596 -0.08606312 -0.41937017 -0.75148624
0000d0 85 70 e7 bd ad 65 ed bd 4d 92 05 c0 c6 4a e8 be
       -0.11300758 -0.11591659 -2.0870545 -0.45369548
0000e0 fc 88 4e be a8 e9 cb bd 46 87 c4 be e5 0d 5d be
       -0.20169443 -0.09956676 -0.38384455 -0.21587332
0000f0 d8 a3 94 be 2d 66 5c be b8 bb cf bd 3d 95 24 be
       -0.29031253 -0.21523352 -0.101432264 -0.16072555

module_list.2.weight f4 [2, 64]
000000 c2 a5 2b 3d 63 2a 9c 3d d8 eb 32 3e ac f7 3e 3d
       0.041906126 0.07625272 0.1747278 0.046622917
000010 24 2e 28 3a 11 50 a3 bd 7c c1 df 3d a5 6f 81 bc
       0.0006415567 -0.07974256 0.10925576 -0.015800307
000020 3e e1 18 3a dd c3 a9 bc 9e ac 52 3d 29 31 9e bd
       0.00058319035 -0.020723278 0.05143415 -0.0772422
000030 cc 08 3b bd 55 81 72 3a 3d 5c 1a 3d 1c 3d 40 bb
       -0.045662686 0.00092508394 0.03768562 -0.00293333
000040 4a 43 02 3b 25 14 ae 3c 9e 25 57 3e b6 76 4f be
       0.0019876533 0.02124984 0.21010444 -0.20260128
000050 f3 0f 9f 3d 4d e8 a3 ba 10 a8 5b be 36 65 31 ba
       0.07766714 -0.0012505144 -0.2145083 -0.0006767096
000060 ff 52 43 3a c0 61 12 3a 71 e9 30 be ed fe e4 bc
       0.0007451027 0.0005584024 -0.17276551 -0.02795359
000070 dc bb 28 be bc 6f 61 be 8e 56 45 3c 6f 6b 93 3d
       -0.16477913 -0.2201528 0.012044562 0.07198226
000080 9d e8 27 bc e5 32 6e 3c 3e 14 37 be 12 56 88 3a
       -0.01024833 0.014538501 -0.17878816 0.0010401628
000090 0e c1 04 3e 9a 46 2a 3b 8c a2 bc bd 85 4d 9d bc
       0.1296427 0.0025982023 -0.09210691 -0.019202003
0000a0 47 53 dc 3d 5f d4 86 3c 34 24 91 3d 90 cc d9 bc
       0.107580714 0.016458688 0.07086983 -0.0265868
0000b0 7d ef cb 3c 1f b8 33 39 0c 1c 69 bd c0 86 77 bb
       0.02489447 0.0001713936 -0.056911513 -0.0037769526
0000c0 db c2 8f 3d c2 a0 b9 bc 0b 21 57 be 8b 19 72 bc
       0.070195876 -0.022659663 -0.21008699 -0.014776598
0000d0 9d c4 99 39 99 21 92 3d a2 1b ea bb 52 6b 91 3c
       0.00029328922 0.071353145 -0.0071444074 0.01775137
0000e0 99 47 bf 3c c8 b4 be 3a 98 82 46 be 84 7f 83 bc
       0.02334957 0.0014549727 -0.19385755 -0.016052015
0000f0 79 68 42 3d a8 53 a4 3b 15 5b f5 ba 6b 06 1b be
       0.047462914 0.0050148554 -0.0018719161 -0.15139167
000100 82 7e a3 bd 4e 19 fb 3c eb 5c 03 3c 18 cd 2d 3d
       -0.07983114 0.030651715 0.008017759 0.04243192
000110 8a 3d fa b9 8b b0 0f bb cb f7 b9 bd c2 38 94 3c
       -0.00047729566 -0.0021925296 -0.09080466 0.01809347
000120 d5 e6 d9 3d 9b 73 6e bd e1 c3 7f bd 06 d6 be bd
       0.10639731 -0.05821572 -0.062442664 -0.093181655
000130 39 d8 a1 bd 6e eb 7c ba a0 41 5d 3d fa fe ae 3d
       -0.07902569 -0.0009648119 0.054017663 0.08544727
000140 55 2e af bc de 89 43 bb e3 81 14 be 35 7a f3 bd
       -0.021384398 -0.0029836814 -0.14502673 -0.118885435
000150 0e 3a 48 bd e1 cb 05 3b 07 88 a2 be ce b0 04 bb
       -0.04888349 0.002041571 -0.31744406 -0.0020246985
000160 a7 cb 32 ba 78 d2 1e 3b 63 00 1a bd bc 14 81 be
       -0.00068205077 0.0024234336 -0.037598025 -0.25211132
000170 54 92 40 bd 5b e0 e3 3d d8 9e 16 bd a6 53 a0 bd
       -0.04701455 0.11126777 -0.03677258 -0.07828455
000180 50 1b c6 3b e6 ec f0 3c 0d 5a 86 3d 4e d4 8c bc
       0.0060457364 0.029409837 0.065601446 -0.017191079
000190 44 b5 de 3a 6f 28 0a bb 43 2f 1c 3b 32 72 dd ba
       0.0016991277 -0.002108123 0.002383188 -0.0016894995
0001a0 1c 47 4c 3c 76 24 bf bd 44 59 a3 3c 82 2d a9 3d
       0.012468126 -0.09333126 0.019940026 0.08260633
0001b0 e1 b4 f0 bd c1 aa 92 3a fe 1d 27 3d d7 8a 9f bd
       -0.1175325 0.0011189805 0.040800087 -0.077901535
0001c0 80 83 b7 3d 4f e8 63 bb 8b d1 ce 3c 76 36 11 be
       0.089606285 -0.0034775918 0.025246402 -0.14180931
0001d0 a0 20 06 ba a8 07 03 bb 24 e0 b1 3d 3d 7e da 3c
       -0.0005116556 -0.0019993577 0.086853296 0.026671523
0001e0 1b e8 83 3d 03 4d 4f 3a 8e 0c 42 3e 64 ba c8 bc
       0.06440755 0.0007907899 0.18950102 -0.02450294
0001f0 b0 b9 65 bd ef f7 53 bc 09 f3 07 bb a9 d6 c1 bc
       -0.05608529 -0.01293753 -0.0020744225 -0.023661928

module_list.2.bias f4 [2]
000000 69 11 8d be 49 c1 70 bd
       -0.27552345 -0.05877808

module_list.0.weight f4 [64, 24]
000000 2c 7c dc ba 28 a5 42 ba 2c 28 3c 3b 51 64 8b ba
       -0.0016821674 -0.0007425123 0.0028710468 -0.0010634755
000010 00 98 9d 35 90 b1 81 b9 24 4a 39 bb 04 27 1f 3b
       1.1741649e-06 -0.00024737092 -0.002827295 0.002428473
000020 b8 cf 46 ba 5f 62 ca ba 5a 16 09 3b 3a 3f 05 3b
       -0.0007584053 -0.0015440694 0.0020917864 0.0020331875
000030 08 1f 70 3a 34 aa 87 3a e3 66 3c bb 5c 47 b0 3a
       0.00091598975 0.0010350407 -0.0028747849 0.0013449001
000040 1d 50 e1 ba bc fb 88 ba e0 2a d7 b9 00 81 e4 b8
       -0.0017190013 -0.0010450999 -0.0004103994 -0.00010895915
000050 6a 0d c4 ba 94 4a d3 ba f6 61 98 ba 92 11 d8 ba
       -0.0014957611 -0.0016120248 -0.0011625874 -0.0016484729
000060 33 07 19 40 9d 6f 1b 40 71 7c 05 be 86 9b e6 3d
       2.3910644 2.4286873 -0.13035752 0.112601325
000070 20 dc 12 bf 65 79 9e 3e ac 8d 04 be 0a 87 e6 3d
       -0.57367134 0.30951992 -0.12944669 0.112562254
000080 68 97 22 40 96 31 14 40 6d 6b 98 be c8 8f 0f 3e
       2.540491 2.3155265 -0.2976946 0.14019692
000090 d3 f4 90 bd 89 5d 4a bf 83 5a 99 be e8 47 0f 3e
       -0.070779465 -0.79048973 -0.29951867 0.13992274
0000a0 4d 4a 67 3f 07 61 4c 3f b3 53 50 3e c7 e9 a8 be
       0.9034775 0.7983555 0.20344429 -0.32990858
0000b0 d6 76 65 3f fb 3c b6 3e 5b 7e 53 3e 14 0f ab be
       0.89634454 0.355934 0.2065367 -0.3340994
0000c0 73 d2 00 3f aa c1 08 3f b3 7c 08 be 18 c4 84 be
       0.5032112 0.5342051 -0.13328819 -0.25930858
0000d0 7a 78 12 bc 16 94 cf 3f 61 7a 0a be d6 1a 85 be
       -0.008939857 1.6217067 -0.13523246 -0.25997037
0000e0 71 1f b1 3f f6 95 c9 3e c3 57 c6 3d b7 08 f3 be
       1.383772 0.39372224 0.09684708 -0.47467586
0000f0 64 65 c5 be 6d b7 83 3f b7 1b cc 3d 8b 81 f4 be
       -0.38553917 1.0290352 0.09966224 -0.47755083
000100 11 bf fb 3f 42 20 93 3d 07 d8 91 3e 59 ed 5b bf
       1.9667684 0.07183887 0.28485128 -0.8590904
000110 87 8c a9 be 6e a9 45 3e 5f 74 90 3e db c8 5b bf
       -0.33115026 0.19302914 0.28213784 -0.85853356
000120 8f 3d fc 3e 26 0b 04 40 ed 3f 73 3e ce b8 4a bd
       0.49265715 2.0631804 0.23754855 -0.04949265
000130 ed 5a 30 bf 32 f0 d3 3f a9 c4 70 3e 11 fd 43 bd
       -0.6888874 1.6557677 0.2351252 -0.047848765
000140 a2 07 25 3f 3d 22 26 40 53 b0 c7 bd 97 12 32 3e
       0.6446477 2.5958397 -0.09750428 0.17389904
000150 49 32 3b 3e 5b 91 99 3c 75 22 d3 bd d3 20 33 3e
       0.18280901 0.018746069 -0.103093065 0.1749299
000160 18 05 15 3b fc de 0c 40 8a 9f 87 3e 46 7d 8e be
       0.0022738632 2.20111 0.26488906 -0.2782995
000170 07 f0 fb 3f f9 84 95 bf 2c 3f 88 3e e1 c6 8e be
       1.9682626 -1.1681205 0.26610696 -0.27886108
000180 c8 40 aa bd 33 42 9f be 5e 9d 6c bd 3f c9 2b 3e
       -0.08313137 -0.31105193 -0.057767265 0.16775988
000190 f9 4d af 3f 18 b9 e8 bc b4 26 58 bd 31 7c 26 3e
       1.369567 -0.028408572 -0.052771285 0.16258313
0001a0 00 5e 9c 3c 02 66 ac be 4c de 75 3d f6 a2 02 bd
       0.019087791 -0.33671576 0.060026452 -0.031893693
0001b0 c3 20 ab 3f 13 10 3c 3f e8 60 75 3d 68 f5 f7 bc
       1.3369373 0.7346203 0.05990687 -0.030268386
0001c0 57 63 ac 3e 09 3a b6 3d ae 16 79 bc 66 23 04 be
       0.3366954 0.08897788 -0.015203161 -0.12904128
0001d0 9d ee 4b 3f 8a 0b 96 3f 53 c4 86 bc 52 d2 05 be
       0.7966097 1.1722271 -0.016451037 -0.13068512
0001e0 37 15 8f 3f 86 8e 04 3e a4 56 89 3d 1c 19 2d 3e
       1.1178349 0.12944993 0.067059785 0.1690411
0001f0 38 71 6f 3f b0 bd ca 3f d2 f4 88 3d 7e f9 2d 3e
       0.93532133 1.5839138 0.06687321 0.16989705
000200 13 ac 10 3f c8 db 92 be 67 b8 5a bb 92 5c 0e 3e
       0.56512564 -0.28683305 -0.0033374073 0.139025
000210 b9 9b 51 bf 76 2f e5 3f f8 11 8b bb 72 6c 0d 3e
       -0.8187824 1.7905109 -0.0042440854 0.138109
000220 dd e1 21 3f ef dd 5c be 5b 7b 97 3d 09 42 07 bd
       0.63235265 -0.21569036 0.07396575 -0.03302196
000230 88 f8 09 c0 96 ab 7d 3f 03 67 92 3d 9f c8 06 bd
       -2.1557941 0.99089944 0.07148554 -0.03290617
000240 ae 9a 8f 3e 3a 2e d5 3f e4 d3 c6 3d 78 48 24 be
       0.280477 1.6654732 0.09708384 -0.1604327
000250 8b 42 4f bf 22 01 d0 3f 26 0c c5 3d 62 d3 20 be
       -0.8096091 1.6250346 0.09621458 -0.15705636
000260 17 66 31 3f 3a 01 0a 40 66 b1 29 be b7 d1 17 3e
       0.692964 2.1563249 -0.16571578 0.14826094
000270 9b 3a 8c be 83 ab 83 3f 52 ca 27 be 63 d5 1a 3e
       -0.27388462 1.0286716 -0.16385773 0.15120463
000280 ba 4b 2e 3f f9 80 11 40 02 ac 92 3d be 7e 4a be
       0.680843 2.2734969 0.07161714 -0.19774911
000290 2f ce 05 3f 53 bb 65 3f 10 fe 96 3d 1a f7 49 be
       0.52267736 0.8973896 0.07372677 -0.19723168
0002a0 9a 5f d4 3f 19 40 8b 3f 97 c9 f2 bd ee 47 f7 be
       1.6591675 1.0878936 -0.118548565 -0.48297065
0002b0 4e a7 a9 3e 38 f9 8a bf 1c 52 f7 bd a5 61 f8 be
       0.33135456 -1.0857306 -0.12076208 -0.48511997
0002c0 a2 ab bc 3f 0d 50 8c 3f da c8 02 be d4 c1 91 bd
       1.4739878 1.096193 -0.12771931 -0.07117048
0002d0 df 62 18 3d 14 c2 53 bf ca 09 ff bd 78 71 90 bd
       0.037203666 -0.82718015 -0.12453039 -0.070528924
0002e0 f4 d9 b5 3f 85 f5 86 3f e1 27 5b bd 27 f0 39 be
       1.4207139 1.0543677 -0.05350483 -0.18158017
0002f0 1a a7 92 be 84 cc d6 be 39 dc 54 bd 8f 0a 3b be
       -0.28643113 -0.41952908 -0.051967833 -0.18265747
000300 a0 bb 18 3e 4a 3a b6 bd 84 b0 06 bb 26 11 53 3c
       0.14915323 -0.088978365 -0.002055199 0.0128825065
000310 d4 6c a4 be d4 2e 48 40 79 b7 25 3b 9f 1f 8a 3c
       -0.3211428 3.1278582 0.002528636 0.016860781
000320 e4 8c dc 3a 2d 1d a7 bd 0b 00 e7 3c 2a b8 b7 3c
       0.0016826657 -0.08159862 0.028198263 0.022426683
000330 da 6d 1f 3f b0 9b 8b 3e 03 a2 e9 3c 6a 4f bc 3c
       0.62276995 0.27267218 0.028519636 0.022987086
000340 12 c1 e0 bd 0f a6 1d be 5d e9 f9 bc ec 04 46 3d
       -0.10974325 -0.15395378 -0.030506784 0.048344538
000350 31 57 b8 3f 1f c3 69 c0 a3 2b f1 bc ca b3 49 3d
       1.4401609 -3.6525342 -0.029439753 0.049243726
000360 37 73 a4 3f 30 50 a7 3d 5c 87 16 bf 77 9b 31 bd
       1.2847661 0.081695914 -0.5880029 -0.043361153
000370 3e 4b 16 3f 6f c8 31 bf f8 60 16 bf 17 14 3a bd
       0.5870856 -0.6944646 -0.5874171 -0.045429315
000380 81 9d b8 3f 8d b9 02 3d 6a f8 a9 3c de 0f ca be
       1.4423066 0.031915236 0.020748336 -0.3946523
000390 9e 6e ec 3e ba 92 c4 bf 94 47 a0 3c 06 74 cb be
       0.46178144 -1.5357277 0.019565381 -0.39736956
0003a0 4f 4f ac 3f 5e 5f 65 3c f0 06 23 3e c9 93 87 be
       1.3461703 0.013999788 0.15920615 -0.2647994
0003b0 b1 f5 eb 3e f4 69 06 c0 dc 6b 24 3e 51 a3 88 be
       0.46085885 -2.1002169 0.1605677 -0.266871
0003c0 0f ca 2c 40 7b 55 b7 3f 75 9e a3 3d e6 e3 57 bf
       2.6998327 1.4322962 0.07989208 -0.8433212
0003d0 07 03 2c 3f 6e 97 64 bf 43 10 9f 3d aa fb 57 bf
       0.6719212 -0.89293563 0.077667736 -0.84368384
0003e0 0a 03 01 40 8d 4a 89 3f a1 a8 b5 bd f3 52 8d 3d
       2.0158105 1.0725876 -0.08870054 0.06900587
0003f0 ba 29 e7 3e 1e c8 9c be e7 94 af bd 3e ae 85 3d
       0.45149022 -0.30621427 -0.08573323 0.06527375

module_list.0.bias f4 [64]
000000 d4 11 24 be 06 8f 09 c0 5e 13 01 c0 48 78 85 bf
       -0.16022426 -2.1493545 -2.016807 -1.0427332
000010 3c 46 00 bf f0 ba 09 c0 33 57 76 3f be d0 0e c0
       -0.5010717 -2.1520348 0.96226805 -2.2314906
000020 18 5a df bf 85 6a 30 bf ea 21 a8 bf fe cd c7 bd
       -1.744937 -0.68912536 -1.313535 -0.09756087
000030 29 b9 de 3e 22 3a ce bf 7e 89 c0 be 70 e6 5a c0
       0.4350064 -1.6111491 -0.37604898 -3.4203148
000040 bf 03 c8 bd 8c 17 34 bf 4d b1 8c 3e 75 fd 90 bd
       -0.097663395 -0.7034843 0.2747902 -0.07079593
000050 2d 5c c3 bd c5 07 ec bf 7e 47 27 3e 14 88 05 3c
       -0.095390655 -1.8439871 0.16335866 0.008150119
000060 14 9a c9 3f 30 64 19 be 19 aa c7 3c 59 10 b6 bf
       1.5750146 -0.14979625 0.024373101 -1.4223739
000070 82 14 4b bf 76 d2 cd bf a9 ac 4f bf 7e 2b 17 c0
       -0.7932817 -1.6079853 -0.81122833 -2.3620296
000080 64 3b 9d bf 37 2b e4 bf 23 74 e7 3e 0b d2 14 bd
       -1.228375 -1.7825688 0.45205793 -0.036333125
000090 b5 34 3f bf 34 ca 2e be 71 5f 6a bf fa 49 7c be
       -0.746898 -0.17069322 -0.9155188 -0.24637595
0000a0 d7 33 d0 bd c2 9a 0f be 1a eb 3a be cb 26 db bf
       -0.10166138 -0.14023879 -0.18253747 -1.7121214
0000b0 9f dc 6f bf b6 4a 78 bf 71 3d 4f be 28 78 21 be
       -0.93696016 -0.96989 -0.20238282 -0.15768492
0000c0 58 63 2b 3f 1d 53 ca bf d9 63 1c bf 64 ad 66 be
       0.6694846 -1.5806614 -0.61089855 -0.22527081
0000d0 41 ad 8d bf 15 40 00 be 35 10 30 be fa d8 5e 3d
       -1.1068498 -0.12524445 -0.17193682 0.054406144
0000e0 a5 41 2e bf 61 e6 00 c0 97 c3 7e bf 20 c0 9b 3e
       -0.68068916 -2.0140612 -0.99517196 0.30420017
0000f0 de a0 77 bf ef 59 50 be f3 f7 4c 3f de c3 1f c0
       -0.9672984 -0.20346807 0.8006584 -2.4963298

module_list.1.weight f4 [64, 64]
000000 48 17 22 bb 3d 1f 55 be 10 09 c0 bc b1 91 40 bf
       -0.0024733115 -0.20812698 -0.023441821 -0.7522231
000010 d7 33 7b bd 2d c2 01 bf 22 e3 21 be a4 e0 99 be
       -0.061328735 -0.50686914 -0.158093 -0.300542
000020 70 1a 6f bd d8 5f e2 be 3b 1c 09 bf a8 b3 0c ba
       -0.058374822 -0.44213748 -0.535587 -0.0005367347
000030 cc 05 a0 be 17 e6 89 3d c5 5b b3 be af d5 0b bf
       -0.31254423 0.06733339 -0.35030952 -0.5462293
000040 0c c3 c0 3a 91 b6 e9 be bd 7a b1 be 34 8a 29 be
       0.0014706566 -0.456471 -0.34663954 -0.16556627
000050 dc 89 63 bf 71 89 d8 be bf b8 3b be 05 62 25 be
       -0.8888223 -0.4229236 -0.18332194 -0.16150673
000060 88 9c a6 be 01 46 b7 be 46 1e db be 2b 8b e4 bd
       -0.325413 -0.35795596 -0.42796534 -0.11159357
000070 3d 5f e2 3c 91 68 e0 be b4 07 a1 be 36 2f 9b be
       0.027633304 -0.43829778 -0.3145119 -0.30309457
000080 3c 9d af be be a6 ee be ec 8e 2b bf 96 58 3c bf
       -0.34299648 -0.4661159 -0.67014956 -0.7357267
000090 60 91 89 bf 4c a2 39 ba 13 c0 97 3d d6 d6 15 bf
       -1.074749 -0.0007081374 0.07409682 -0.5853094
0000a0 a8 99 ba 39 49 94 bd ba 40 c9 ea 38 8f 1b 4e bf
       0.00035591167 -0.0014463748 0.00011195475 -0.805108
0000b0 fb d4 cc bd 52 5d f5 be 80 e8 03 bb 64 a7 8c 3a
       -0.1000156 -0.4792276 -0.0020127594 0.0010731039
0000c0 c8 07 75 bf 43 94 77 be ad c3 9d be 03 a7 2c bf
       -0.95715 -0.24177651 -0.3081335 -0.6744234
0000d0 bf 19 50 bf cc b8 2a 3b e4 20 3e 3b 0f c6 f1 3d
       -0.81289285 0.002605009 0.0029011304 0.11805355
0000e0 a1 b5 8e bd 81 0b b9 be 41 2a 3a be cd ed a0 3e
       -0.06968237 -0.3614159 -0.18180181 0.31431428
0000f0 8b a6 01 bf 18 98 16 bb ad 11 61 be 1b 86 70 bf
       -0.5064475 -0.0022978839 -0.21979399 -0.9395463
000100 50 be dc 39 06 50 fe bd b9 5f d0 bc a4 d8 ce bd
       0.00042103464 -0.12417607 -0.02543627 -0.10099915
000110 a3 a9 92 bd ee d2 20 be 20 4e 31 be 0a e1 a7 3c
       -0.07161262 -0.15705463 -0.17314959 0.02049305
000120 9d ab 82 bc 63 65 ed 3c c2 46 cc 3c e8 cb 37 ba
       -0.015950972 0.028979009 0.024936084 -0.00070112804
000130 ed 08 ca bc c2 97 ae 3c e1 ed 79 bd 5b fd ae 3c
       -0.02466246 0.021312598 -0.061017875 0.021361044
000140 42 13 3c 3b 29 fd c3 3c 62 19 8f bd e2 3d 31 bd
       0.0028698002 0.023924427 -0.06987263 -0.043271907
000150 d1 45 c8 bc a5 9b 64 be 4c fd 24 3c e4 2c c8 bd
       -0.024447354 -0.22324999 0.010070156 -0.09774187
000160 83 eb a2 bd 00 6d 3d bb 17 f9 13 be 04 7e ba bd
       -0.079550765 -0.002890408 -0.14450489 -0.09106067
000170 c2 48 80 bd 93 4e a4 bd 28 82 c9 3c 8c b1 b2 bd
       -0.062638775 -0.08022799 0.024598196 -0.08725271
000180 af a5 3b be 95 a4 e2 bd 51 69 c1 3c 13 59 c9 bd
       -0.18324922 -0.11066548 0.02360979 -0.09831443
000190 00 0c 97 bd e4 d8 3b ba b2 e7 7c be f5 e9 19 be
       -0.07375336 -0.0007165803 -0.2469776 -0.15030654
0001a0 0c 88 a6 3a af 8a 13 bb d8 db 1c ba 4b a2 b1 bd
       0.001270534 -0.0022513082 -0.0005983687 -0.08673533
0001b0 35 43 a2 3c 4d 3e fa bd a0 55 95 ba b0 24 71 3a
       0.019807437 -0.12218914 -0.0011393316 0.0009198887
0001c0 3c 4f 05 be e2 94 20 be 0f d6 d0 bd e1 17 09 be
       -0.13018507 -0.15681794 -0.101970784 -0.13388015
0001d0 d8 bd aa 39 68 0f 97 b9 4a d2 35 bb c4 b5 84 bd
       0.0003256637 -0.00028812443 -0.002774375 -0.064799815
0001e0 0a f3 cb ba 0d 6e 01 be 5f 5f 31 be 20 f0 ca 3c
       -0.0015560102 -0.12639637 -0.17321537 0.024772704
0001f0 49 1b af 3c 63 f9 89 ba 43 4e ec bc eb f1 4d bd
       0.021375315 -0.0010526594 -0.028845912 -0.05027954
000200 d0 87 34 b9 38 88 02 bb 9a 69 29 bb 2a d3 28 bd
       -0.00017216732 -0.0019917618 -0.0025850297 -0.041217007
000210 1c 9b 34 ba f0 3d ac bd 7a eb 27 bb 23 59 e4 ba
       -0.0006889568 -0.08410251 -0.0025622533 -0.0017421584
000220 bc 58 50 bd a0 cf 35 3a 86 bf 40 3b 78 5f 36 ba
       -0.050865874 0.00069355406 0.0029411032 -0.0006956975
000230 d6 1f b6 bd a8 92 c2 b9 b6 de 83 ba c2 e7 26 3b
       -0.08892791 -0.0003711183 -0.001006088 0.0025467728
000240 80 79 03 3a 80 4a 6b 39 f0 2c 3c ba 7a bb f6 ba
       0.00050153583 0.000224391 -0.0007178327 -0.0018824183
000250 40 50 03 ba 0b 38 76 bd 9b e9 35 bb 64 69 ac bd
       -0.00050092116 -0.06011204 -0.0027757648 -0.08418539
000260 f4 74 82 3a d0 05 b1 bd bc 06 2c bd 74 f2 af 3a
       0.0009953068 -0.08643687 -0.04199861 0.0013423697
000270 e8 cc af bd 5a 5e 00 3b bd 39 f5 ba e4 23 43 bb
       -0.08584005 0.0019587488 -0.0018709224 -0.002977603
000280 48 d8 af 3a f5 fc 09 bb 80 53 a8 bd d8 04 0a 3a
       0.0013415897 -0.0021055315 -0.08219051 0.0005265004
000290 5a 4c ca ba d6 20 ec ba 9e 78 1f bb 5e 36 88 bd
       -0.0015434131 -0.0018015157 -0.0024333368 -0.06650995
0002a0 80 61 ed 3a d4 15 22 3b 58 b6 af 3a 07 5a 36 bb
       0.0018110722 0.002473225 0.0013405783 -0.0027824657
0002b0 b8 08 b3 b9 d0 d3 ae bd c8 d3 10 bb e0 6b f5 b9
       -0.00034148037 -0.08536494 -0.0022098888 -0.00046810415
0002c0 a6 3c d8 ba 7c ad aa 3a 94 f0 a7 3a 68 d9 88 bd
       -0.0016497567 0.0013021673 0.0012812787 -0.06682092
0002d0 bc 03 f1 3a fc 4e a2 3a 8e 3d 08 3b 6e 62 0b 3b
       0.0018387954 0.0012383158 0.0020788643 0.0021268385
0002e0 55 c4 db ba e0 a0 7e 3a 77 63 b2 ba c8 fd e3 39
       -0.0016766886 0.00097133033 -0.0013609965 0.00043485896
0002f0 68 e0 3a bb c0 67 d3 ba 08 19 8e b9 90 6b af bd
       -0.0028515104 -0.0016128942 -0.00027103 -0.08565438
000300 d6 19 1c 3b c5 bb 3e 3e 97 61 53 3d d1 57 24 bf
       0.002381911 0.18626316 0.05160674 -0.641965
000310 01 5d fb be c3 0f f0 3e a3 52 0d bd b9 9a 5d bf
       -0.49094394 0.46887025 -0.034502637 -0.86564213
000320 16 ba b8 3e 18 e8 9d be 88 f2 f7 be 08 fa 6c 3a
       0.36079472 -0.30841136 -0.48427224 0.0009039943
000330 27 11 08 3e f6 1d 5c bf 15 7f 12 3e e4 e5 7f bf
       0.13287793 -0.85983217 0.1430629 -0.9996016
000340 b0 a9 c6 39 72 66 a6 be 4f 92 29 bf bf de 72 bf
       0.0003789193 -0.32500035 -0.66238874 -0.94871134
000350 96 25 d6 be bf 14 eb 3e ac a9 ab be 69 e7 39 3e
       -0.4182555 0.45914266 -0.33527887 0.18154682
000360 6a b9 1c c0 8d 02 e8 bd c3 00 86 bf 8f b2 f7 bd
       -2.4488168 -0.113286115 -1.0468982 -0.12094604
000370 07 dd 7f 3f 01 c9 91 bf 6f 1c ff be 04 18 35 bd
       0.99946636 -1.1389467 -0.4982638 -0.044212356
000380 d6 16 3e bc 6e 7f 91 3c 24 70 4f bf 4b d2 7b be
       -0.011602124 0.017760959 -0.8103049 -0.24591939
000390 82 62 20 bf 00 7b 7c b9 e0 e4 a0 bf 95 0a 88 be
       -0.6265031 -0.00024078414 -1.2569847 -0.26570573
0003a0 80 71 2e ba 8f a9 cf ba cc b5 60 3a 20 e5 eb be
       -0.0006654486 -0.0015843379 0.0008572012 -0.46073246
0003b0 f3 bc 41 bf ee a9 46 bf dc a9 17 3b 30 77 9b 39
       -0.7567894 -0.7760304 0.0023142016 0.00029652705
0003c0 d4 46 56 bf b5 e1 d6 3e 24 9b a8 be 04 a4 48 3e
       -0.83701825 0.41969076 -0.32930863 0.19593817
0003d0 80 ec 0e 3f 50 48 41 bb 00 d6 49 38 03 70 67 bf
       0.5582962 -0.0029492564 4.8121437e-05 -0.9040529
0003e0 75 ed 83 3e 29 3c 74 bf 8e b6 8c be 7f 9b 38 bf
       0.25767103 -0.954043 -0.27483028 -0.7211227
0003f0 03 9c 15 c0 24 97 9c 3a 0e fe 81 3e b2 a8 84 be
       -2.3376472 0.0011946899 0.2538914 -0.25909954

module_list.1.bias f4 [64]
000000 b8 1b 54 3d 23 4f 39 3d 59 1f 0f be 1d b4 95 be
       0.051784247 0.045241486 -0.13976802 -0.29238978
000010 b6 9b 88 bd 1d 74 97 3f d2 cc cc 3d 77 20 ab 3d
       -0.066703245 1.183231 0.10000004 0.083558016
000020 4b 0b 6f 3f 3a e6 b3 bf 4d 89 eb bd ef 1c f1 3f
       0.93376607 -1.4054635 -0.115007974 1.8836955
000030 3a b8 08 be 56 1e 46 be 18 c9 e4 bc c0 96 ca be
       -0.13351527 -0.1934751 -0.02792792 -0.39568138
000040 a1 7d 66 3e 5a 71 af bd 50 ab 3f be 64 6f 66 bb
       0.22508861 -0.08566542 -0.18717694 -0.0035161609
000050 a7 60 09 be e2 26 55 bd c1 cd 9c 3d db fc 0c bf
       -0.13415776 -0.052039035 0.07656432 -0.55073327
000060 16 d7 3b be e0 90 cb bd 84 16 c3 bf 93 34 75 bd
       -0.18343768 -0.09939742 -1.5241246 -0.05986459
000070 b7 0f fe bd c0 3d 5a bf 30 f0 76 3d ce 2b 33 40
       -0.12405341 -0.85250473 0.060287654 2.7995486
000080 3d db a6 be f1 bf 62 be f3 89 f4 3f 1d b6 ee be
       -0.3258914 -0.22143532 1.9104599 -0.46623316
000090 aa 92 74 be df d4 9e be cf 76 04 bf ab 49 e3 bd
       -0.23884073 -0.31021783 -0.5174379 -0.110980354
0000a0 f3 ff 6d bd b0 f6 b6 3f 0a f5 b2 bd 5d 26 00 3f
       -0.05810542 1.4294033 -0.08738144 0.5005854
0000b0 0a 9d 6e 3d 0c 27 2a 3f b2 af 47 bf 1f 00 e3 bd
       0.058255233 0.6646583 -0.78002465 -0.110840075
0000c0 b6 b5 c6 bd 6e 2c 92 be 9b 81 be be 50 f5 13 bf
       -0.09702627 -0.28549522 -0.37208256 -0.5779619
0000d0 02 da e9 bd 20 97 d8 bd f3 f3 a6 bd 3c 3d b7 bd
       -0.11418535 -0.105757 -0.08151998 -0.089472264
0000e0 cb d4 ea bd 4c 3b fe be c4 0a 20 bc 78 e2 91 be
       -0.11466368 -0.49654615 -0.009768192 -0.28493094
0000f0 3a ed 21 c0 fe 0d 19 bf 63 e5 00 be d3 22 fb 3d
       -2.5301042 -0.59786975 -0.12587504 0.122625016

module_list.2.weight f4 [2, 64]
000000 39 7e 41 bd 8c 89 92 bd 15 91 5e bc ed ba 89 be
       -0.047239516 -0.07155141 -0.013584395 -0.26900426
000010 1d 34 30 bb 98 9d 13 3d 75 62 02 b9 48 ba 9f 3d
       -0.002688653 0.036038965 -0.00012434444 0.07799202
000020 53 c2 77 bd 86 ec 74 bc 3c bc 2f bb b8 28 d4 bc
       -0.060488056 -0.01494897 -0.0026815077 -0.025898322
000030 2e ca 53 3c 48 bb 0f bd c9 6a b9 bd d1 77 ed 3d
       0.012926621 -0.035090715 -0.09053571 0.11595119
000040 06 5d cb bc 85 dd e0 bb e9 e8 b4 3d 7f 9a 19 3d
       -0.02482463 -0.0068623447 0.088334866 0.037500855
000050 fb 8f 4a 3d 63 e6 94 3b 5b 06 33 3d 0f 66 9a bd
       0.049453717 0.004544066 0.043707233 -0.075389974
000060 f2 96 a0 bb db 88 8c bc 0d c9 bc 3d 0c 91 3f 3d
       -0.0049008066 -0.017155102 0.09218035 0.046769187
000070 62 18 66 bb 0e 44 5c 3d 95 de 03 3d 40 b7 b6 bb
       -0.0035109748 0.05377584 0.032194693 -0.0055760443
000080 29 47 c2 3c b1 a6 2e bc c4 f2 7c 3d df ca 93 3d
       0.023715572 -0.0106598595 0.061754957 0.07216429
000090 63 c3 f4 3c 19 05 4d 3d 59 37 c3 3c 7b 13 3e 3c
       0.029878324 0.05005369 0.023830103 0.011601324
0000a0 9a 5b 68 bd e7 d4 ec bc f7 a9 0b 3b d1 e9 be bc
       -0.056727983 -0.028910113 0.0021311024 -0.023304852
0000b0 01 8b 2f 3c a3 2e 39 3d 2e dd 01 bd 14 d5 ac 3d
       0.010714293 0.045210492 -0.031705074 0.08439079
0000c0 2d 83 5c 3a 7d d5 58 bc 6e e6 83 3d 70 57 7a 3d
       0.00084118807 -0.013234493 0.06440435 0.061118543
0000d0 17 8d d2 bb 7c 59 bc 3c cb 84 70 3d 74 18 96 3b
       -0.0064255106 0.022991888 0.05872039 0.0045805518
0000e0 c2 e9 c1 bc f6 72 a8 bc 83 a9 40 bc 07 b6 a7 bd
       -0.023671035 -0.02056263 -0.011759165 -0.08189016
0000f0 83 8a b8 bc 5e ec d1 3d 42 25 c0 3c 0b 28 b2 bd
       -0.022526985 0.102501616 0.023455266 -0.08699044
000100 bf 4c 49 3e 97 84 31 be 2a 3b 23 bb ee dd a6 3c
       0.19658183 -0.17335735 -0.002490709 0.020369496
000110 f9 b2 f1 ba 0a 6c 08 bf d1 79 15 be 2c 21 57 3c
       -0.0018440179 -0.53289855 -0.1459725 0.013130467
000120 6b 3b ab 3e 27 fe d0 bd fe 78 2b 3b 3b ad 23 3e
       0.3344377 -0.10204726 0.0026164646 0.15984051
000130 d4 2f 5d be 0e 5d f8 bd 54 8a 5a be b8 84 16 bc
       -0.21600276 -0.12127124 -0.2134183 -0.009186916
000140 a6 bc 10 be 12 4a 15 3d a5 7b ba bd fb 4a 00 3d
       -0.14134464 0.036447592 -0.091056146 0.031321507
000150 c5 90 eb 3d 14 27 8f bb b9 4a 12 bd 3d e8 1b be
       0.11502222 -0.004368672 -0.035715792 -0.1522531
000160 4f 04 92 3c 0a 3b 88 bb b3 45 78 bc ec 9a 34 3d
       0.01782432 -0.0041574286 -0.015153336 0.044093058
000170 b8 89 b3 bc 5d 64 77 bd d4 28 54 be 92 98 94 bd
       -0.021916255 -0.06039845 -0.207187 -0.07255663
000180 6e 87 42 bd 50 9a 37 bd e6 0c d5 bc ba 55 28 bd
       -0.047492437 -0.0448249 -0.026007127 -0.04109738
000190 00 2a 96 3d c0 03 58 bc 6b 45 85 3d d4 8c 89 bc
       0.073322296 -0.013184488 0.06507381 -0.016790785
0001a0 33 ac fd bc bb 91 0a 3c b3 1c ca b8 66 18 7b 3d
       -0.0309659 0.008457596 -9.637456e-05 0.061302565
0001b0 31 3a 92 bd 31 95 de bc f8 0e bb 3d b7 23 c8 bd
       -0.071400054 -0.02717075 0.091337144 -0.09772437
0001c0 30 6c 51 ba c4 f8 d1 3d 29 f5 54 be f7 b7 48 3e
       -0.00079888385 0.102525264 -0.20796646 0.19601427
0001d0 92 18 a6 3c 00 41 3e bc b8 c4 56 be 5c 38 37 bc
       0.020275388 -0.011612177 -0.2097348 -0.011182871
0001e0 67 95 ba 3d 48 9e fc 3c 11 9d e7 bb 36 7b e2 bd
       0.091105275 0.030837193 -0.0070682843 -0.11058657
0001f0 94 fe 48 bd d6 ce f6 3d 5b c3 60 bc 51 cd c0 bd
       -0.04907091 0.120511696 -0.013718451 -0.09414161

module_list.2.bias f4 [2]
000000 54 2f 52 3c 7b 6b c0 3d
       0.012828667 0.093955
